checkpoints/attempt11_40bins_point8_06_visgen_coco17tr_openimagev7traine_320p_qual_20_24_28_32_36_40_50_smooth_2_subsam_444/best_model.pt (torch, 854882 bytes, 31 tensors)

reduce.0.weight f4 [64, 1024, 1, 1]
0	0xbc1ae504	-0.009454016
1	0x3cc2f491	0.023798259
2	0xbbf07cc5	-0.0073390924
3	0x3cc9ad65	0.024618814
4	0xbc9543f3	-0.018220877
5	0x3c86efef	0.016471831
6	0x3b814aca	0.003945683
7	0x3cd91153	0.026497519
8	0xbca2ef7d	-0.019889588
9	0x3c31da2d	0.01085524
10	0xbc706d35	-0.0146744745
11	0xbc39d2d6	-0.011341771
12	0xbc86f83f	-0.016475795
13	0x3cb54876	0.022129279
14	0x3aa614cf	0.0012670996
15	0x3c7561c5	0.014976923
16	0x3c525f8a	0.012840161
17	0xbbf26121	-0.0073968326
18	0x3ce876b0	0.028376907
19	0x3be390e5	0.006944763
20	0x3b0509ac	0.0020299954
21	0xbbcedb44	-0.0063127596
22	0xbc178354	-0.00924762
23	0xbc3a55ec	-0.011373024
24	0xb96d05b4	-0.00022604206
25	0x3cfffbd8	0.031248018
26	0x3d168285	0.036745567
27	0x3d0841b5	0.033265788
28	0xbcef7fdb	-0.02923577
29	0xbcafec47	-0.02147497
30	0xbca9c2d5	-0.020722786
31	0xbb93b9c3	-0.0045082285
32	0xbc408675	-0.011750807
33	0xbcae5d7f	-0.021284817
34	0x3c4c11c6	0.012455409
35	0xbc36a207	-0.011147029
36	0x3ce37fc2	0.02777088
37	0x3b4d4e8e	0.003132734
38	0xbb94f45b	-0.004545731
39	0xbbdcd145	-0.006738814
40	0xbc8c1b64	-0.017102905
41	0x3c54e10a	0.012993107
42	0xbbb80088	-0.0056152977
43	0x3c31604d	0.010826183
44	0x3c25ea7a	0.010126704
45	0xbb0b94ce	-0.0021298411
46	0x3bc27b7c	0.0059351306
47	0xbcdbf9c7	-0.026852502
48	0xbc6dcb41	-0.014513792
49	0xbc3589ef	-0.011080249
50	0xbb100286	-0.002197416
51	0xbca9cdff	-0.02072811
52	0x3a6a33e0	0.00089341216
53	0xbc7aa666	-0.015298462
54	0x3c2a95fa	0.010411734
55	0x3c32a233	0.010902929
56	0xbcd526b1	-0.026019426
57	0x3c24d748	0.010061093
58	0xbcf48457	-0.02984826
59	0xbbd255f1	-0.0064189364
60	0x3c2079f3	0.0097947
61	0x3cc99316	0.024606269
62	0xb99b22cd	-0.00029589832
63	0xbc0d7061	-0.00863275
64	0x3b5d234e	0.0033742967
65	0x3d08eace	0.033427052
66	0xb79ba8d5	-1.8556058e-05
67	0x3d28f034	0.0412447
68	0x3c4e14fc	0.012578245
69	0x3cc1b3b0	0.023645252
70	0x3c4fed8f	0.012690916
71	0x3c968743	0.018375045
72	0x3c43f743	0.011960807
73	0xbc06e104	-0.008232359
74	0x3bbed1ad	0.005823335
75	0x3d01b451	0.031666104
76	0x3ca54624	0.020175047
77	0x3c8d5d62	0.017256442
78	0xbd25a026	-0.040435933
79	0x3c3a6cd4	0.011378486
80	0xbca102b1	-0.019654604
81	0x3b1d0344	0.0023958245
82	0xbb6f1388	-0.0036480147
83	0xbcab7686	-0.02093054
84	0xbcd44e31	-0.02591619
85	0x3cbfbc78	0.023405299
86	0x3c08fbb2	0.00836079
87	0x3cad1f7e	0.02113318
88	0xbbb8c9b7	-0.0056392807
89	0xbb7f1495	-0.003892218
90	0xbb361827	-0.0027785392
91	0xbc39724c	-0.011318754
92	0x3d221ae1	0.039576415
93	0xbcd74169	-0.026276307
94	0xbae84767	-0.0017721475
95	0x3c7a9cf2	0.015296208
96	0x3caac29f	0.020844756
97	0xbc8e602c	-0.017379843
98	0xbc805457	-0.015665216
99	0xbbd68a69	-0.0065472615
100	0xbc948cf3	-0.018133616
101	0x3c81749f	0.01580268
102	0x3ca3d0ae	0.019996967
103	0xbc486ff8	-0.012233727
104	0xbbf6f521	-0.007536546
105	0xbc8a3f9f	-0.01687604
106	0xba88a195	-0.0010424132
107	0x3c759863	0.014989945
108	0xbb3bd4e8	-0.0028660838
109	0x3d39ccbb	0.04536126
110	0x3b5cd308	0.003369512
111	0xbc64d17b	-0.01396596
112	0x3bc2102d	0.0059223385
113	0x3d302fb8	0.04301426
114	0xbca4b36d	-0.020105088
115	0x3caaa76a	0.020831782
116	0xbaa4d26f	-0.0012574921
117	0xbd0226f5	-0.031775434
118	0x3c54c020	0.012985259
119	0xbc267d31	-0.010161684
120	0x3cf3cf56	0.029761951
121	0xbcce86a9	-0.025210695
122	0x3c9293ed	0.017892802
123	0xbc3355b1	-0.010945723
124	0x3ca8b513	0.020594155
125	0xbc2e3a64	-0.010634039
126	0x3c36451e	0.011124877
127	0x3bbeaa9b	0.0058186776
128	0x3c16183c	0.009161051
129	0xbc5b8bdb	-0.013400043
130	0xbb11b015	-0.0022230197
131	0xbbdfd626	-0.0068309484
132	0xbb908c57	-0.004411261
133	0xbc3ffe8d	-0.0117184045
134	0xbbde8fdb	-0.0067920513
135	0x3cadb36f	0.021203725
136	0x3d31f736	0.04344865
137	0xbbb68211	-0.0055697043
138	0x3c53e890	0.012933865
139	0x3ae4b68c	0.0017449423
140	0xbc6e92bd	-0.014561352
141	0xbc2bcd0e	-0.010485901
142	0x3c57c8b6	0.013170412
143	0x3cd3a5f4	0.025835969
144	0x3c44966d	0.011998755
145	0x3b9bb1e2	0.00475143
146	0x3cdf5d3e	0.027266141
147	0xbcd1e176	-0.025620203
148	0xb99bf548	-0.00029746653
149	0xbbae1dda	-0.005313617
150	0xbce1909d	-0.027534777
151	0xba386b7a	-0.0007035058
152	0x3c886aa9	0.016652422
153	0xbc69a5ac	-0.014260691
154	0xbbc13e05	-0.005897286
155	0x3d3145f8	0.043279618
156	0x3c664d7d	0.014056561
157	0x3c8f3d15	0.01748518
158	0x3af383f5	0.0018578755
159	0xbb71d3c9	-0.0036899915
160	0x3c816727	0.015796257
161	0x3c2ec58a	0.010667214
162	0xbb06c96a	-0.002056683
163	0xbc83e16c	-0.0160987
164	0x3ba5083e	0.005036383
165	0x3c3a2368	0.011360981
166	0x3c9b8319	0.01898341
167	0x39f9fa57	0.000476795
168	0xbbd303da	-0.006439668
169	0x3ca2a6d9	0.01985495
170	0xbc8ef858	-0.017452404
171	0xbbb5fc04	-0.0055537242
172	0xbcdb90a2	-0.026802365
173	0xbca1b950	-0.019741684
174	0xbbef27bd	-0.0072984383
175	0xbc0fc95b	-0.008776034
176	0xbc6a85c4	-0.014314119
177	0xbc270871	-0.010194884
178	0x3cb52df1	0.022116633
179	0x3ca71bb2	0.020398948
180	0x3ce77570	0.02825424
181	0xbbefc6c4	-0.007317396
182	0x3cd6616b	0.0261695
183	0x3c97ba81	0.01852155
184	0x3c110329	0.008850851
185	0x3cd370be	0.025810596
186	0xbc7c286b	-0.015390496
187	0x3c06db06	0.00823093
188	0x3c7fb067	0.015606022
189	0xbb99d57e	-0.0046946397
190	0x3c452637	0.012033037
191	0xbc09ae70	-0.008403406
192	0xbd267718	-0.04064092
193	0x3c96c486	0.018404257
194	0x3cc4d66a	0.024028022
195	0x39d27c69	0.00040147014
196	0xbc8658fd	-0.016399855
197	0x3cea61a7	0.028611017
198	0xbca96879	-0.0206797
199	0x3c1c7665	0.009549712
200	0x3ce7c77e	0.028293367
201	0xbc60184d	-0.013677669
202	0x3c3010be	0.010746179
203	0xbb96f463	-0.00460677
204	0xbc0fc3f2	-0.008774744
205	0x3bf93a7d	0.0076058493
206	0x3c86d6b9	0.01645981
207	0xbb88eafb	-0.0041784025
208	0x3a0d8985	0.0005399215
209	0x3ccf3b11	0.02529672
210	0x3cf2504f	0.02957931
211	0x3c53b8c5	0.01292247
212	0x3c490f4c	0.012271713
213	0xbc61d992	-0.013784783
214	0xbc5fec94	-0.013667244
215	0x3c727575	0.014798512
216	0x3cacbe79	0.021086918
217	0x3cea4406	0.02859689
218	0x3d2e6792	0.04257924
219	0x3bda965d	0.0066707567
220	0xbca75bb4	-0.02042947
221	0xbc2888dd	-0.010286537
222	0x3c1d15d4	0.009587724
223	0x3c822c92	0.015890393
224	0x3c781c18	0.015143417
225	0x3d3a4164	0.045472518
226	0x3c3229cd	0.010874224
227	0x39a69879	0.00031775588
228	0x3cae4107	0.021271242
229	0xbd1060e3	-0.03524865
230	0x3bad9ce2	0.005298243
231	0x3cef494c	0.029209755
232	0xbc7c6296	-0.015404364
233	0x3b4d9e97	0.0031375044
234	0x3d20bba5	0.03924145
235	0x3c31f5ff	0.010861873
236	0x3cf7f276	0.030266982
237	0xbc62bc87	-0.013838894
238	0x3d1bcdd6	0.038038097
239	0x3cabf64d	0.020991469
240	0x3c224673	0.009904492
241	0xbcd19982	-0.025585894
242	0x3beefda9	0.0072934222
243	0xbb97cb90	-0.004632421
244	0xbcb87415	-0.02251629
245	0x3bd480f8	0.006485101
246	0x3d10eecc	0.035383984
247	0xbbd36650	-0.0064514056
248	0x3c9d7bc0	0.019224048
249	0xbc9bcbcb	-0.019018074
250	0xba576ca4	-0.0008217788
251	0x3cce8bcc	0.025213145
252	0xba51aeb8	-0.00079987524
253	0x3ca94fc5	0.02066792
254	0xbc8cac73	-0.017172074
255	0x3d2a6e2e	0.04160898

reduce.0.bias f4 [64]
0	0x3cb9dd28	0.022688463
1	0xbccb873e	-0.024844762
2	0x3ba700f8	0.005096551
3	0xbc487f9e	-0.012237458
4	0x3b0c307d	0.0021391206
5	0xbc7a46db	-0.015275682
6	0x3b86508a	0.0040989565
7	0xbc896059	-0.016769575
8	0x3bdf48eb	0.0068141124
9	0x3bba5e25	0.0056874924
10	0x3c043107	0.00806833
11	0xbc570f17	-0.013126156
12	0x3b0b5aeb	0.0021263908
13	0x3cc09bb9	0.023511754
14	0xbcdc0ee8	-0.026862577
15	0x3ccc55d1	0.024943264
16	0x3c97be04	0.018523224
17	0x3ce92682	0.028460745
18	0xbc8fabac	-0.017537914
19	0x3cb492c8	0.022042647
20	0x3c83e8c1	0.016102197
21	0x3babc576	0.005242045
22	0x3bf17304	0.0073684473
23	0x3c621e13	0.013801116
24	0xbc9d8d3d	-0.019232387
25	0x3c8ac3f7	0.016939146
26	0x3cbbd931	0.022930713
27	0xbcbdb943	-0.023159629
28	0x3af5e379	0.0018759809
29	0xbc9021b1	-0.01759419
30	0xbc20dcbc	-0.009818252
31	0xbb9f2c3d	-0.0048575685
32	0x3c9c3d29	0.019072132
33	0x3cdc9361	0.026925744
34	0xbcbeead0	-0.023305327
35	0xbca7fd0d	-0.020506406
36	0x3cb06c02	0.021535877
37	0x3c2102bb	0.009827311
38	0x3ba291cd	0.0049612285
39	0xbc0cd3d8	-0.008595429
40	0xb91e8c1a	-0.00015120246
41	0xbce267d1	-0.027637394
42	0x3ca30992	0.019902024
43	0x3cf2d217	0.029641194
44	0xbbc18ef5	-0.0059069344
45	0xbba2d1d7	-0.0049688625
46	0x3ba68af5	0.005082483
47	0x3ce02be9	0.027364688
48	0x3cdab065	0.02669544
49	0x3ba05f00	0.0048941374
50	0xbb7ed19a	-0.0038882256
51	0x3c8d1870	0.017223567
52	0x3b6a0974	0.00357112
53	0xba782a73	-0.00094667746
54	0xbbb92fd1	-0.005651452
55	0x3cc97829	0.02459343
56	0x3c8d963c	0.017283551
57	0xbcd1ac87	-0.025594963
58	0xbb0a50b9	-0.0021105243
59	0x3b4934c5	0.003070162
60	0xbc11e34f	-0.008904292
61	0x3c65c3a3	0.014023694
62	0x3cb8450c	0.022493862
63	0x3c04c5bb	0.008103783

reduce.1.weight f4 [64]
0	0x3f7aae25	0.97921973
1	0x3f768157	0.96291107
2	0x3f75710c	0.9587562
3	0x3f745fef	0.95458883
4	0x3f79c4cf	0.9756593
5	0x3f6ea38d	0.9321831
6	0x3f7457af	0.95446295
7	0x3f71a93c	0.94398856
8	0x3f71ebec	0.94500613
9	0x3f78283d	0.969364
10	0x3f6ffb6e	0.93743026
11	0x3f760542	0.9610177
12	0x3f739627	0.9515099
13	0x3f776922	0.96644795
14	0x3f77c8cc	0.96790767
15	0x3f7013b9	0.93780094
16	0x3f76856b	0.9629733
17	0x3f75a24f	0.9595079
18	0x3f7345d9	0.95028454
19	0x3f70b30d	0.9402321
20	0x3f6cfe8e	0.9257592
21	0x3f7153ba	0.9426838
22	0x3f7718df	0.96522325
23	0x3f744dae	0.9543103
24	0x3f71807d	0.9433668
25	0x3f7bb7ce	0.9832734
26	0x3f7454d6	0.9544195
27	0x3f756cf0	0.9586935
28	0x3f71c9f9	0.9444881
29	0x3f6ee22f	0.9331388
30	0x3f746cbb	0.9547841
31	0x3f80ea50	1.0071507
32	0x3f6fbf08	0.93650866
33	0x3f76f5a5	0.96468574
34	0x3f6eacd6	0.93232477
35	0x3f7bdb4c	0.98381495
36	0x3f6f8c6d	0.9357365
37	0x3f740da2	0.953333
38	0x3f72b080	0.9480057
39	0x3f77ff1c	0.9687364
40	0x3f79c745	0.97569686
41	0x3f80ba91	1.0056936
42	0x3f6da941	0.92836386
43	0x3f6fb468	0.93634653
44	0x3f791840	0.9730263
45	0x3f746560	0.95467186
46	0x3f6fa41f	0.93609804
47	0x3f6ffcfe	0.9374541
48	0x3f77c38c	0.96782756
49	0x3f7810e9	0.969008
50	0x3f796685	0.9742206
51	0x3f725376	0.946586
52	0x3f7566ed	0.9586018
53	0x3f69ac3d	0.9127844
54	0x3f74613c	0.9546087
55	0x3f880451	1.0626317
56	0x3f71121c	0.9416826
57	0x3f6f429c	0.9346101
58	0x3f7191d5	0.9436315
59	0x3f78e4b6	0.97223985
60	0x3f7814a9	0.96906525
61	0x3f771680	0.9651871
62	0x3f806656	1.003123
63	0x3f760dc9	0.96114784

reduce.1.bias f4 [64]
0	0xbd043668	-0.03227845
1	0xbd86b2b9	-0.065770574
2	0xbccdb2c3	-0.025109654
3	0xbc77e1ea	-0.015129546
4	0xbd42fb8c	-0.047603175
5	0x3b6dba02	0.00362742
6	0xbc2e069b	-0.010621692
7	0xbbeaac16	-0.0071616275
8	0xbcdf147b	-0.027231446
9	0xbb876950	-0.0041324273
10	0xbca1495a	-0.019688297
11	0xba773f19	-0.00094317045
12	0xbd080f9c	-0.03321801
13	0xbc2a8936	-0.01040869
14	0xbd21019a	-0.039308168
15	0xbd65310a	-0.05595497
16	0xbc3183c7	-0.010834641
17	0xbd019113	-0.031632494
18	0x3a9f35ac	0.0012146733
19	0xbc062ba1	-0.008189113
20	0xbc3ab5f1	-0.011395917
21	0xbd297a1f	-0.04137623
22	0xbd4232d3	-0.04741175
23	0x3c79889f	0.015230327
24	0x3c369d2f	0.011145874
25	0xbd2afef8	-0.041747063
26	0x3c6a2297	0.014290473
27	0x3b851884	0.0040617604
28	0xbc473b73	-0.01216017
29	0xbc819f93	-0.015823161
30	0xbd2114f5	-0.039326627
31	0x3c673be8	0.014113404
32	0xbc60673e	-0.01369649
33	0xbca3740d	-0.019952798
34	0x3c39ab87	0.011332399
35	0x3c4125b2	0.011788772
36	0xbcb67ee1	-0.022277297
37	0xbc357f70	-0.011077747
38	0xbc899db2	-0.016798828
39	0xbd6e9e8c	-0.05825667
40	0xbd0c9d09	-0.034329448
41	0x3c0b70ec	0.008510809
42	0xbcefb89c	-0.029262833
43	0xbd00b5be	-0.031423323
44	0xbc466bee	-0.012110693
45	0x3c085d09	0.008322963
46	0xbc41e624	-0.011834655
47	0xbc9745bf	-0.018465875
48	0x3b941849	0.0045194966
49	0xbd0136d2	-0.03154642
50	0xbcf23e4a	-0.029570717
51	0xbd1105a1	-0.03540576
52	0xbcabeb19	-0.020986127
53	0xbcc94f2c	-0.024573885
54	0xbce13198	-0.027489468
55	0x3c42d830	0.011892363
56	0xbc97503b	-0.018470874
57	0xbcf7a08e	-0.030227926
58	0xbb830f2f	-0.0039996128
59	0xbc28c243	-0.010300222
60	0x3af34bea	0.0018562053
61	0xbce6ba8a	-0.02816512
62	0xbd1eb71b	-0.03874884
63	0x3afedaa0	0.0019443817

reduce.1.running_mean f4 [64]
0	0xbd8a7fd4	-0.067626625
1	0x3e2c9761	0.16854621
2	0x3e280ed3	0.16411905
3	0x3e3f46fe	0.18679425
4	0xbc0fcc25	-0.008776699
5	0x3e6fea40	0.23429203
6	0xbbd43def	-0.0064771096
7	0xbe916960	-0.28400707
8	0x3d8685c7	0.06568485
9	0xbd915fa3	-0.070983194
10	0x3e04866c	0.12941903
11	0x3e3b7de0	0.18309736
12	0xbe5a8f3b	-0.213437
13	0x3df136a2	0.117779985
14	0x3e9ebc2a	0.31002933
15	0xbe5f506d	-0.21808024
16	0xbd92f743	-0.07176068
17	0x3e1cd286	0.15314683
18	0x3d15bb1e	0.036555402
19	0xbe0e0efb	-0.13872902
20	0xbe8db126	-0.27674216
21	0xbe93b604	-0.28849804
22	0xbe0a4761	-0.13503791
23	0x3d5315f9	0.051534627
24	0xbd1e895d	-0.03870522
25	0x3defa250	0.117008805
26	0xbdbfb26f	-0.093602054
27	0x3de52a4a	0.111897066
28	0x3e4cdd08	0.20006192
29	0xbe03fe4e	-0.12889978
30	0xbe5f0be6	-0.21781883
31	0xbce16cc5	-0.027517686
32	0xbe51b11e	-0.20477721
33	0xbe8629c2	-0.26203734
34	0xbb987ac4	-0.0046533067
35	0xbca02fe3	-0.019554084
36	0xbc888e95	-0.01666955
37	0xbe91d9c4	-0.28486454
38	0x3e866e61	0.26256087
39	0xbd264f71	-0.040603105
40	0xbd936c8d	-0.07198439
41	0xbc9f49ca	-0.019444365
42	0xbe2016f8	-0.15633762
43	0x3caf7e9b	0.021422675
44	0xbdffc5f9	-0.12488932
45	0xbca7318e	-0.020409372
46	0xbc60e346	-0.013726061
47	0xbe495b64	-0.19663769
48	0xbe5fe1a6	-0.21863422
49	0x3d9efcd0	0.07763064
50	0xbd3585aa	-0.044316925
51	0x3dc18457	0.0944907
52	0x3eba81d7	0.36427185
53	0x3d497c15	0.0491906
54	0x3d5bcb7c	0.053660855
55	0xbd8991e3	-0.06717279
56	0xbdc63342	-0.096777454
57	0xbde6a7ad	-0.1126245
58	0x3db52fd6	0.088470146
59	0x3eb2dae2	0.3493262
60	0xbdc79e67	-0.0974701
61	0xbe2b1c60	-0.16710043
62	0x3c64c457	0.013962827
63	0x3df53cad	0.119744636

reduce.1.running_var f4 [64]
0	0x3e1efe61	0.15526725
1	0x3daf89cf	0.08571207
2	0x3ddac210	0.10681546
3	0x3de4360e	0.111431226
4	0x3dde71b8	0.10861534
5	0x3daf5579	0.085612245
6	0x3dfbe886	0.1230021
7	0x3e013298	0.12616956
8	0x3def21c1	0.1167636
9	0x3de90343	0.11377575
10	0x3df58964	0.11989096
11	0x3e32b7d6	0.1745294
12	0x3dd74fd1	0.10513271
13	0x3dabb339	0.083837934
14	0x3db1db3d	0.086843945
15	0x3dd92dba	0.10604425
16	0x3df877ec	0.12132248
17	0x3dc9a6d3	0.09846272
18	0x3e00cdc2	0.1257849
19	0x3dad0df6	0.084499285
20	0x3e3d2b90	0.18473649
21	0x3e07016e	0.13184139
22	0x3db63cd4	0.08898321
23	0x3df29dd4	0.118465096
24	0x3db7fd63	0.089838766
25	0x3decf26c	0.11569676
26	0x3e0657eb	0.13119476
27	0x3df9bd4f	0.12194311
28	0x3da92477	0.08258908
29	0x3dd44956	0.1036555
30	0x3df8081e	0.12110923
31	0x3e153cc1	0.14573957
32	0x3df58f82	0.119902626
33	0x3ddbd0c9	0.10733182
34	0x3defe8f6	0.11714356
35	0x3ddb181f	0.1069796
36	0x3d9729a9	0.07380993
37	0x3de1e62e	0.110302314
38	0x3dcf8b8d	0.10134039
39	0x3de4be80	0.111691475
40	0x3e094fdd	0.13409372
41	0x3def24e3	0.116769575
42	0x3db710ae	0.08938728
43	0x3db632ef	0.088964336
44	0x3e16c44c	0.14723319
45	0x3daa2b34	0.083090216
46	0x3db89575	0.09012882
47	0x3d8bbb48	0.068228304
48	0x3dd9953a	0.10624166
49	0x3ddd528b	0.108067594
50	0x3dbd2a0f	0.09236538
51	0x3dae75b1	0.085185416
52	0x3df48726	0.1193984
53	0x3dcecddb	0.100978576
54	0x3de8de80	0.113705635
55	0x3dffaf8c	0.12484655
56	0x3ddaed81	0.106898315
57	0x3da4705b	0.080292426
58	0x3df75c16	0.12078111
59	0x3e0779f1	0.1323011
60	0x3da21e39	0.07915921
61	0x3e02476a	0.12722555
62	0x3d9786cf	0.073987596
63	0x3da0ce52	0.078518525

mlp.0.weight f4 [32, 128]
0	0x3d625c73	0.055263948
1	0x3ce2dad5	0.027692238
2	0xbcb90248	-0.022584096
3	0xbd72dfe6	-0.059295557
4	0xbd743168	-0.05961743
5	0x3d8126b5	0.06306211
6	0xbda8dfe4	-0.08245829
7	0xbba0cdd4	-0.004907349
8	0xbd1fd677	-0.03902289
9	0x3cbc8088	0.023010507
10	0xbd6225f8	-0.05521199
11	0xbd933ee7	-0.07189732
12	0xbd79dfeb	-0.06100456
13	0xbd914e84	-0.07095054
14	0x3dd3efa1	0.1034844
15	0x3c87e5a3	0.016588992
16	0xbde6886d	-0.1125649
17	0x3b287ed9	0.0025710373
18	0x3c358f76	0.011081567
19	0xbcb6383d	-0.022243613
20	0x3ce9af85	0.028526077
21	0x3d4ccaf2	0.04999823
22	0x3ce6c134	0.028168298
23	0x3d5b017b	0.05346821
24	0xbdb2e65f	-0.08735346
25	0xbc30fc00	-0.010802269
26	0xbd0d9955	-0.034570057
27	0xbdaff096	-0.0859081
28	0xbd2e4a28	-0.04255119
29	0xbcf7d25d	-0.030251676
30	0xbbd96197	-0.006633948
31	0xbce64352	-0.028108273
32	0x3d949d1f	0.07256531
33	0x3ce27f27	0.027648522
34	0x3dc93a5f	0.098255865
35	0xbd5531b3	-0.05204935
36	0xbd0cd636	-0.034383975
37	0x3d1161f5	0.03549381
38	0xbd893551	-0.066996224
39	0x3d75d31d	0.060015786
40	0xbd531be9	-0.05154029
41	0xb957c787	-0.00020578328
42	0x3b206352	0.0024473262
43	0x3c1e7d0d	0.009673369
44	0xb8603aff	-5.3460706e-05
45	0x3d9da624	0.076977044
46	0xbc690018	-0.014221214
47	0x3d3c2eba	0.045943
48	0x3cb848ab	0.022495588
49	0xbd44bcb8	-0.04803154
50	0x3c394ec0	0.011310279
51	0x3d561ce7	0.052273657
52	0x3dbcf432	0.09226264
53	0x3c9e94ea	0.019358117
54	0x3d4af829	0.04955307
55	0x3cbf129e	0.023324307
56	0xbd1f2c7c	-0.038860783
57	0xbc0d5414	-0.008626003
58	0x3c4b4a9f	0.012407928
59	0xbd212bed	-0.03934853
60	0xbd9b7926	-0.075914666
61	0xbd6183c3	-0.0550573
62	0xbac794d4	-0.0015226849
63	0xbd819a4f	-0.0632826
64	0x3c9017fe	0.017589565
65	0xbcef2f9e	-0.02919751
66	0xbca5706b	-0.020195207
67	0x3dc84a13	0.097797535
68	0x3d88c858	0.066788375
69	0x3b7338a3	0.0037112616
70	0x3bbbb55d	0.0057284073
71	0xbbeb6b9d	-0.0071844594
72	0xbd0ea9b2	-0.034829803
73	0xbd942804	-0.07234195
74	0xbc86006f	-0.016357629
75	0xbc8ba9ee	-0.017048802
76	0xbd0186f3	-0.03162284
77	0x3d19e694	0.037573412
78	0x3dbd67ab	0.09248289
79	0xbd8da2b2	-0.06915797
80	0x3c87404a	0.016510148
81	0x3d089d2e	0.033353023
82	0x3d6051ba	0.05476544
83	0x3baf0924	0.005341666
84	0x3d15f85f	0.03661382
85	0xbd678853	-0.056526493
86	0xbd2554e9	-0.04036418
87	0x3c6eeeba	0.014583284
88	0x3cb1c9ec	0.02170273
89	0x3c80a493	0.015703475
90	0xba996130	-0.0011701938
91	0x3d100e1f	0.035169717
92	0xbd17c007	-0.037048366
93	0xbd3be727	-0.04587474
94	0xbc4eb7b3	-0.0126170395
95	0x3ca15b26	0.019696783
96	0x3d07f666	0.03319397
97	0xbc39be34	-0.011336852
98	0xbd1accdf	-0.037793037
99	0xbca73ab8	-0.020413741
100	0x3d8f2d02	0.069910064
101	0xbd911f52	-0.07086052
102	0xbc42a2b9	-0.011879616
103	0xbca03a53	-0.019559061
104	0x3b892722	0.004185573
105	0xbbf00f8c	-0.007326072
106	0x3b2a6cf5	0.0026004885
107	0x3d535a4f	0.051599797
108	0xbcd466e3	-0.025927966
109	0x3d8d5beb	0.069022976
110	0x3c53aa37	0.012919
111	0xbd0d33de	-0.034473293
112	0xbb6b4dc8	-0.0035904516
113	0x3c1d406d	0.00959788
114	0x3dd97474	0.10617915
115	0xbd2fa5f7	-0.042882886
116	0x3dd77dde	0.10522054
117	0x3d150e28	0.036390454
118	0xbd8ac46f	-0.06775748
119	0x3d0d319b	0.034471136
120	0xbc99b1e5	-0.018761585
121	0x3ca28c75	0.019842366
122	0x3d2c92fd	0.042132366
123	0xbd27b6bd	-0.040945757
124	0x3ccbe1fe	0.024888035
125	0x3c6086c2	0.013704004
126	0x3c889fd2	0.01667777
127	0x3c942f7a	0.018089045
128	0xbd5ff21e	-0.05467426
129	0xbd3a9464	-0.045551673
130	0x3bfd882a	0.0077371793
131	0xbdb26265	-0.087101735
132	0xbdb988d9	-0.09059305
133	0xbda8edca	-0.0824848
134	0x3d5db55e	0.054128043
135	0xbcf38e95	-0.029731074
136	0x3c5c57ac	0.013448637
137	0xbccca654	-0.024981655
138	0x3b952ead	0.0045526833
139	0x3d04f9a6	0.032464646
140	0x3cbcb439	0.023035156
141	0x3c9709cf	0.018437294
142	0xbd6d4f27	-0.057936814
143	0x3d464943	0.04840971
144	0x3d8154cc	0.06315002
145	0x3d7d581e	0.061851613
146	0xbcf4b82d	-0.029872978
147	0x3d835e50	0.06414473
148	0x3c9ac221	0.018891396
149	0x3d488c27	0.048961785
150	0x3a88f817	0.0010449913
151	0xbd0777dd	-0.033073295
152	0xbc65a6b7	-0.014016799
153	0xbdcd32f3	-0.100194834
154	0xbd833a3f	-0.06407594
155	0x3da603ec	0.08106217
156	0x3cf84eea	0.030311067
157	0xbd650654	-0.055914238
158	0xbda9a926	-0.08284216
159	0x3c4328a6	0.011911547
160	0x3d2976b9	0.04137299
161	0x3ce1fb2c	0.027585588
162	0xbd9ac020	-0.07556176
163	0x3cb798c2	0.022411708
164	0x3d3861c0	0.045015097
165	0x3db4127e	0.087925896
166	0xbc378a95	-0.011202474
167	0xbdaee432	-0.085396186
168	0x3d8f3126	0.06991796
169	0x3c1dad01	0.009623767
170	0xbd7e163e	-0.06203293
171	0x3d4291c3	0.04750229
172	0x3dab1155	0.08352915
173	0xbcad6964	-0.021168418
174	0xbc93cb28	-0.018041208
175	0x3c95d8f9	0.018291937
176	0xbb9d0e19	-0.0047929403
177	0xbcf5b9ff	-0.029995916
178	0xbceb0eaa	-0.028693516
179	0xbb0acbc0	-0.0021178573
180	0xbda1707d	-0.078827836
181	0xbc80b9a6	-0.015713524
182	0xbc51dd4f	-0.012809112
183	0x3dade1fb	0.08490368
184	0x3cd12b04	0.025533207
185	0xbbd9b4fc	-0.0066438895
186	0xbd202ddc	-0.039106235
187	0x3d3e8e83	0.04652263
188	0x3cf94010	0.030426055
189	0x3d4e619a	0.05038605
190	0x3b23d9cb	0.002500164
191	0xbce805aa	-0.028323013
192	0x3cf81633	0.030284023
193	0xb840b3b8	-4.5943743e-05
194	0xbc539450	-0.012913778
195	0xbd449bc5	-0.048000116
196	0x3cce6ee6	0.025199365
197	0x3cf43aa1	0.029813113
198	0xbcd5c181	-0.026093246
199	0x3d92bfc4	0.07165483
200	0x3d9033ae	0.07041107
201	0xbd8ad0d6	-0.067781135
202	0x3d49ef65	0.04930057
203	0x3b4e4858	0.0031476226
204	0xbc94eb55	-0.018178621
205	0x3c4a784a	0.012357781
206	0xbd3d724b	-0.046251576
207	0xbb6c07a5	-0.0036015299
208	0xbcf7e11e	-0.030258711
209	0xbda7dc92	-0.08196367
210	0x3d367c04	0.044551864
211	0x3d3da8f8	0.04630372
212	0x3d49df43	0.049285185
213	0x3d7df1c5	0.061998148
214	0xbd2079f0	-0.03917879
215	0xbd2fc7f4	-0.0429153
216	0xbcaf5ce5	-0.0214066
217	0xba400cf2	-0.0007326148
218	0x3cb82c8d	0.022482181
219	0x3b3bb491	0.0028641562
220	0xbce12a41	-0.027485969
221	0xbd64fb9f	-0.055904027
222	0x3d1bcb98	0.03803596
223	0x3de2c4e4	0.1107271
224	0x3cb1cfa3	0.021705454
225	0x3d2af350	0.041735947
226	0x3d7c1481	0.06154299
227	0x3d07d19b	0.03315888
228	0x3d58f612	0.052969046
229	0xbd765f2e	-0.060149364
230	0x3d6df06d	0.058090616
231	0xbc231957	-0.009954772
232	0x3ca13f07	0.019683374
233	0x3db1b3cf	0.08676874
234	0x3c70b9c5	0.014692728
235	0xbba884f6	-0.0051428033
236	0x3ce50ca1	0.027960123
237	0xbdb0b734	-0.08628693
238	0x3d28f8a2	0.04125274
239	0xbd907da4	-0.07055214
240	0x3da3137c	0.07962701
241	0x3da29fdb	0.07940646
242	0xbc87f9ae	-0.016598549
243	0x3d17c07c	0.0370488
244	0xbd8067c9	-0.062697954
245	0xbc229e45	-0.00992543
246	0xbd20520a	-0.03914074
247	0x3d92d1f1	0.071689494
248	0xbd1e9739	-0.038718436
249	0xbd3a26f4	-0.045447305
250	0xbb916549	-0.004437123
251	0x3d9ae021	0.075622804
252	0x3b3ed3a6	0.0029117852
253	0xbd304dfa	-0.043043114
254	0x3d0ed8f6	0.03487488
255	0x3d192044	0.037384287

mlp.0.bias f4 [32]
0	0xbd15b101	-0.036545757
1	0xbd57c7a0	-0.05268061
2	0xbd7c228a	-0.061556377
3	0x3d06f12f	0.032944854
4	0xbd4d2e64	-0.05009307
5	0xbdb56885	-0.08857826
6	0xbd7a5c61	-0.061123256
7	0xbc961fcb	-0.018325707
8	0xbcfc9297	-0.030831618
9	0x3d65f930	0.056145847
10	0xbcf8299b	-0.030293277
11	0xbcb2530a	-0.021768112
12	0x3d20c0be	0.039246313
13	0x3bc6cd49	0.0060669524
14	0xbda3ea9d	-0.08003733
15	0xbd42bab9	-0.047541354
16	0xbd6af59b	-0.057363134
17	0x3d038f8b	0.032119315
18	0xbd61f5f3	-0.055166196
19	0xbc2d5df7	-0.010581485
20	0xba8a2fe3	-0.0010542836
21	0xbbdd6a05	-0.0067570233
22	0x3bc83093	0.006109306
23	0xbc7bc3c1	-0.015366496
24	0xbd814b1f	-0.06313156
25	0x3cef14f8	0.029184803
26	0x3cf60425	0.030031273
27	0x3c5bd08c	0.013416421
28	0x3bbd9fdc	0.005786879
29	0x3d9575f0	0.072978854
30	0xbd958df3	-0.07302465
31	0xbd691f01	-0.056914333

mlp.1.weight f4 [32]
0	0x3f68d75b	0.90953606
1	0x3f7a806a	0.97852194
2	0x3f86dea1	1.0536691
3	0x3f6da466	0.9282898
4	0x3f60825c	0.8769891
5	0x3f6300b7	0.88672966
6	0x3f6540ed	0.89552194
7	0x3f87ee6d	1.0619637
8	0x3f72697b	0.946922
9	0x3f6b19b1	0.91836077
10	0x3f65437e	0.8955611
11	0x3f88f21e	1.0698888
12	0x3f66697b	0.900047
13	0x3f8d135a	1.1021531
14	0x3f860ca9	1.0472614
15	0x3f7ddcd1	0.99165064
16	0x3f6e3684	0.93051934
17	0x3f6686af	0.9004926
18	0x3f8c4e55	1.0961405
19	0x3f89db85	1.0770117
20	0x3f70af84	0.94017816
21	0x3f6e7af1	0.93156344
22	0x3f86c4ea	1.0528843
23	0x3f73a8da	0.9517952
24	0x3f87611c	1.057651
25	0x3f85bc1e	1.0448034
26	0x3f8aabd3	1.0833687
27	0x3f787db1	0.9706679
28	0x3f7268b0	0.9469099
29	0x3f847c0f	1.035036
30	0x3f80bd7d	1.0057827
31	0x3f633fb0	0.88769054

mlp.1.bias f4 [32]
0	0xbd5a097d	-0.053231705
1	0x3ce89ad8	0.028394148
2	0x3bcc297b	0.006230531
3	0xbd16b5dc	-0.03679453
4	0xbd8584cb	-0.06519469
5	0xbdaabc99	-0.083367534
6	0xbd7d46e1	-0.061835174
7	0x3ca21605	0.01978589
8	0xbbb23514	-0.0054384563
9	0xbd521cba	-0.051296927
10	0xbdadf8ea	-0.08494742
11	0xbc869c14	-0.016431846
12	0xbd7098f5	-0.05873962
13	0x3c897b60	0.016782463
14	0xbcdafce2	-0.026731912
15	0xbd41a474	-0.047275975
16	0xbaf1e415	-0.0018454815
17	0xbd321344	-0.043475404
18	0x3d73c7bd	0.059516657
19	0x3d9dc31e	0.07703231
20	0xbba2b101	-0.004964948
21	0xbd386751	-0.045020405
22	0x3cf64d28	0.030066088
23	0x3cd429dc	0.025898866
24	0xbcb05c43	-0.021528369
25	0x3dd92d93	0.10604396
26	0x3c61489f	0.013750224
27	0x3c245139	0.010029131
28	0xbc540019	-0.012939476
29	0x3de80155	0.11328379
30	0x3d8ba7ed	0.06819139
31	0xbd872a7b	-0.065998994

mlp.1.running_mean f4 [32]
0	0x3ee35727	0.4440243
1	0x3f7d77a6	0.99010694
2	0xbf394171	-0.7236548
3	0xbe01aadc	-0.12662834
4	0xbe15c198	-0.14624631
5	0xbe2fcb2c	-0.17167348
6	0xbf047906	-0.5174717
7	0xbef465a6	-0.47733802
8	0x3ee67a30	0.45015097
9	0x3f1af077	0.6052317
10	0xbed729d9	-0.42024115
11	0xbf7ff9f6	-0.99990785
12	0xbeab034d	-0.33400956
13	0xbf27bc9c	-0.6552217
14	0xbf4fc033	-0.8115265
15	0xbf9a2178	-1.2041464
16	0xbf24482b	-0.6417262
17	0x3f077f3b	0.52928513
18	0xbec0f2e1	-0.37685302
19	0xbf738c15	-0.95135623
20	0x3f0ba2af	0.5454511
21	0xbf826770	-1.0187817
22	0xbfb9c5a2	-1.4513438
23	0xbf46b354	-0.77617383
24	0xbf84dd55	-1.0380045
25	0x3ee1f1d5	0.44129816
26	0xbf2fd68a	-0.68686736
27	0xbec813bc	-0.39077556
28	0x3eccdd64	0.40012658
29	0x3f6ccdc0	0.9250145
30	0x3f6a5a31	0.9154387
31	0xbc71cfb3	-0.014758992

mlp.1.running_var f4 [32]
0	0x3dce1c9b	0.1006405
1	0x3e274d8f	0.1633818
2	0x3deec999	0.116595455
3	0x3dc7376b	0.09727367
4	0x3e0b1338	0.1358155
5	0x3e1885fd	0.14894862
6	0x3dce39d1	0.10069621
7	0x3debb5e6	0.11509304
8	0x3e0df57e	0.13863179
9	0x3e16b80f	0.1471865
10	0x3e1823fd	0.14857478
11	0x3db566a8	0.08857471
12	0x3dc90d60	0.09817004
13	0x3defd25f	0.11710047
14	0x3deeb517	0.11655634
15	0x3dda6907	0.106645636
16	0x3e46413e	0.19360825
17	0x3e06bbff	0.13157652
18	0x3dc7975e	0.09745668
19	0x3df856d1	0.12125934
20	0x3e35208d	0.17688198
21	0x3dabbbc5	0.083854236
22	0x3e04e8a4	0.1297937
23	0x3e22fce1	0.15916778
24	0x3db56885	0.08857826
25	0x3e119abe	0.14219186
26	0x3e02eb63	0.12785105
27	0x3e152427	0.14564572
28	0x3e4131ee	0.18866703
29	0x3e708b9d	0.23490758
30	0x3e5f3f29	0.21801437
31	0x3e000ab9	0.1250409

mlp.4.weight f4 [1, 32]
0	0x3d4e5b59	0.050380085
1	0xbdd61f45	-0.10455183
2	0xbdcafbd5	-0.099113144
3	0x3d0d9d8a	0.03457407
4	0x3d9b36b8	0.07578796
5	0x3d82e8b6	0.06392042
6	0x3d5e5f8c	0.05429034
7	0xbda95cc2	-0.08269645
8	0x3d212895	0.039345343
9	0x3d476bd3	0.048686814
10	0x3d97b5b2	0.074077025
11	0xbde703ed	-0.11280046
12	0x3d70efc8	0.058822423
13	0xbdb61666	-0.08890991
14	0xbdeef02d	-0.11666904
15	0xbe2e57c5	-0.17025669
16	0x3d28d619	0.041219804
17	0x3d7b970c	0.061423346
18	0xbdab77ab	-0.08372434
19	0xbd9d67de	-0.07685827
20	0x3d07a669	0.033117685
21	0x3d4e4ede	0.050368182
22	0xbda177fb	-0.078842126
23	0xbdf9d1cd	-0.121982194
24	0xbdcf8845	-0.10133413
25	0xbdb14a60	-0.08656764
26	0xbda66ced	-0.08126245
27	0xbdf856ee	-0.121259555
28	0x3cda07ba	0.026615012
29	0xbd99c0ee	-0.075075015
30	0xbdb18e1c	-0.08669683
31	0x3d817719	0.06321544

exp_avg f4 [64, 1024, 1, 1]
0	0xb6f02640	-7.1570103e-06
1	0xb799a3ee	-1.8315357e-05
2	0xb98edf56	-0.0002725075
3	0x38d47da6	0.000101323516
4	0x393fba1e	0.00018284513
5	0x39682f75	0.00022142923
6	0xb8c686c8	-9.466481e-05
7	0xb791e724	-1.739298e-05
8	0xb6b9ff13	-5.543124e-06
9	0xb640de7b	-2.873973e-06
10	0x37556e86	1.2721523e-05
11	0x39811f5b	0.0002462816
12	0x38ba8712	8.89433e-05
13	0xb8b4839f	-8.607585e-05
14	0x391b5249	0.00014812606
15	0xb7cc33ce	-2.4342819e-05
16	0xb95ce009	-0.00021064295
17	0x37851e6d	1.5869004e-05
18	0xb905f967	-0.00012776778
19	0xb93785b0	-0.00017502042
20	0x37ab3adc	2.0412197e-05
21	0x37b60f8b	2.1703328e-05
22	0x395e8124	0.00021219678
23	0xb6349280	-2.6907364e-06
24	0x370d19c3	8.410253e-06
25	0x381e2292	3.770233e-05
26	0x384e77a4	4.922565e-05
27	0xb95d642e	-0.00021113522
28	0xb8024202	-3.105589e-05
29	0x392156fe	0.00015386564
30	0xb9cc048d	-0.00038913303
31	0x395154e1	0.00019963413
32	0xb8ef0e42	-0.00011399064
33	0xb7de907e	-2.6531747e-05
34	0xb9a10976	-0.00030715362
35	0xb95e94b2	-0.00021226963
36	0xb97563e8	-0.00023402239
37	0xb8caad4e	-9.664391e-05
38	0xb8c13f83	-9.214787e-05
39	0xb8b86d3c	-8.79415e-05
40	0xb904f2dd	-0.00012678975
41	0x355ecfeb	8.3004005e-07
42	0x39772592	0.00023569752
43	0xb90a6e47	-0.00013201787
44	0x37803d0e	1.528722e-05
45	0x375fca75	1.3338974e-05
46	0xb911944b	-0.00013883521
47	0xb6ec5110	-7.042785e-06
48	0xb7a375e9	-1.948602e-05
49	0xb8945e94	-7.0748065e-05
50	0xb90eca11	-0.00013617451
51	0xb8464552	-4.727144e-05
52	0x399e3a08	0.00030179345
53	0xb7f68fb7	-2.9392408e-05
54	0xb880f9c3	-6.1500374e-05
55	0x39d71821	0.00041025973
56	0xb6969e6a	-4.48879e-06
57	0xb88d0fc2	-6.726339e-05
58	0xb9a79e07	-0.00031970462
59	0x398cc68d	0.00026850813
60	0x39195033	0.00014621094
61	0x399107d4	0.00027662388
62	0xb90fcc7b	-0.00013713718
63	0x3843e44e	4.670425e-05
64	0x38904a9e	6.8803536e-05
65	0xb92b4148	-0.0001633215
66	0x389b2462	7.397753e-05
67	0xb84efdc3	-4.935056e-05
68	0x37b2ab43	2.1299003e-05
69	0xb8e2975a	-0.00010804711
70	0xb8cbafbd	-9.712528e-05
71	0xb787e51f	-1.6199947e-05
72	0x381d55ce	3.751163e-05
73	0xb898338a	-7.257525e-05
74	0x358acbf4	1.0341159e-06
75	0x389df384	7.531702e-05
76	0x38306104	4.2052023e-05
77	0x348ea2c7	2.6567997e-07
78	0xb9325885	-0.00017008379
79	0x389342f1	7.021975e-05
80	0x3902bc77	0.00012467975
81	0xb92d11da	-0.00016505216
82	0xb840932c	-4.591343e-05
83	0x3819b5d4	3.6647383e-05
84	0xb9ae85f0	-0.00033287657
85	0x39848210	0.00025273906
86	0xb94bea58	-0.00019446888
87	0xb987ea35	-0.00025923704
88	0xb97123f0	-0.00022996939
89	0xb9ba511f	-0.00035537124
90	0x390243b1	0.00012422983
91	0xb93b8841	-0.00017884468
92	0x38a99400	8.086115e-05
93	0xb94901e2	-0.00019169555
94	0x371123eb	8.651036e-06
95	0x39b664a1	0.0003478872
96	0x399fcdd1	0.00030480188
97	0x39416f72	0.00018447431
98	0x38362b4f	4.3432516e-05
99	0x39409e2f	0.00018369475
100	0xb6ac8175	-5.1410702e-06
101	0xb8f04544	-0.000114569935
102	0x37c41177	2.3373153e-05
103	0xb86319c4	-5.4145014e-05
104	0xb9013af0	-0.00012324355
105	0x38860c1e	6.391875e-05
106	0x38327161	4.25441e-05
107	0xb97f446e	-0.00024344187
108	0xb9edd1bf	-0.00045360436
109	0xb98caab8	-0.00026830076
110	0xb88e38df	-6.781681e-05
111	0xb8c9f94b	-9.630861e-05
112	0x3983fcab	0.0002517452
113	0x3717f7b0	9.057971e-06
114	0xb83e520a	-4.5375935e-05
115	0xb8cffbb9	-9.917416e-05
116	0x38632ce7	5.4162836e-05
117	0xb90a34d9	-0.00013180393
118	0xb8a650f7	-7.930578e-05
119	0x38c87aa2	9.559585e-05
120	0x38c51461	9.397488e-05
121	0xb90e5f81	-0.00013577753
122	0xb89930da	-7.304708e-05
123	0x39a226c7	0.0003092794
124	0xb8020126	-3.0995485e-05
125	0x39189355	0.00014550735
126	0xb6ce1d46	-6.1426863e-06
127	0xb9910391	-0.00027659212
128	0x38b445b4	8.596052e-05
129	0x39fc3253	0.0004810268
130	0x39b34ce8	0.0003419884
131	0x39248978	0.0001569147
132	0x38eb9bf3	0.00011234721
133	0xb82332b7	-3.890946e-05
134	0x3795c39b	1.785327e-05
135	0xb8b716fc	-8.730401e-05
136	0xb989af8d	-0.00026261472
137	0x38229415	3.8761722e-05
138	0xb95a2a9f	-0.00020805978
139	0xb99816ec	-0.00029008777
140	0x3937b8fd	0.00017521153
141	0xb91f21bd	-0.0001517599
142	0xb90bbb8b	-0.00013325938
143	0xb79ecbf0	-1.8930034e-05
144	0xb6d0f30c	-6.2271774e-06
145	0x38b0cee8	8.430873e-05
146	0xb92efeaf	-0.0001668881
147	0xb8aebdc7	-8.332315e-05
148	0x398fd452	0.00027433276
149	0x38dd22a2	0.00010544552
150	0x39096a93	0.0001310504
151	0x3992e681	0.0002801903
152	0x38cbdbfd	9.72077e-05
153	0xb8f2c722	-0.000115765506
154	0xb8969ed5	-7.182142e-05
155	0x384942fe	4.7984526e-05
156	0x38091d19	3.2690445e-05
157	0x38092692	3.2699267e-05
158	0xb7075271	-8.065822e-06
159	0xb69d5cda	-4.689774e-06
160	0x381e91c0	3.7805876e-05
161	0xb8d021fd	-9.924544e-05
162	0xb7c69df7	-2.3676997e-05
163	0xb9325b1f	-0.00017009348
164	0x3a2bba79	0.0006550919
165	0xb8cae9e9	-9.67568e-05
166	0x36a311f2	4.8598677e-06
167	0xb51828c4	-5.6683734e-07
168	0x38c86958	9.556365e-05
169	0x392c578b	0.0001643581
170	0xb878877a	-5.925398e-05
171	0xb91b712a	-0.00014824109
172	0xb88707b2	-6.438735e-05
173	0x379430f4	1.766577e-05
174	0x36e07e40	6.6904176e-06
175	0xb9602b46	-0.00021378425
176	0xb924d55b	-0.0001571974
177	0x39d6c985	0.00040967404
178	0xb7ac2d3c	-2.0525062e-05
179	0x3946e016	0.0001896623
180	0xb84a9d72	-4.8307185e-05
181	0xb91141de	-0.00013852815
182	0xb79a4fad	-1.8395333e-05
183	0x39aabd06	0.0003256576
184	0x39766a10	0.000234999
185	0x39c5e6d7	0.00037746757
186	0x387b9b45	5.998767e-05
187	0xb7a4acb5	-1.9630746e-05
188	0x38c37d9d	9.321722e-05
189	0xb8a77505	-7.984977e-05
190	0xb9f476ba	-0.00046627765
191	0x38fc9bd8	0.000120453245
192	0xb740969c	-1.1479158e-05
193	0x390bce23	0.00013332865
194	0xb9588eba	-0.00020652535
195	0x378d6daf	1.6859585e-05
196	0x3987cbba	0.00025900995
197	0x37c181f8	2.3067914e-05
198	0x38f8b3f4	0.000118590804
199	0xb758dd53	-1.2926134e-05
200	0x3964db67	0.00021825508
201	0xb8fc3701	-0.00012026542
202	0x37370ed9	1.0911107e-05
203	0x38bdd088	9.051064e-05
204	0xb925cbb6	-0.00015811514
205	0x379de759	1.8823588e-05
206	0xb62b27a8	-2.5504069e-06
207	0xb9128050	-0.00013971445
208	0xb991f652	-0.00027840078
209	0xb937f627	-0.00017543939
210	0xb8ee34d4	-0.000113585644
211	0x38c0628b	9.1736285e-05
212	0x39cb6b8f	0.00038799315
213	0x37d960cf	2.5913496e-05
214	0x3714b0e7	8.862676e-06
215	0xb827c98c	-4.0003608e-05
216	0x38e6753e	0.00010989093
217	0x39f75840	0.00047177263
218	0xb740a541	-1.1482568e-05
219	0xb8fd8c84	-0.00012090153
220	0x39424853	0.00018528225
221	0x3806bbaf	3.2122884e-05
222	0xb80f4258	-3.4155644e-05
223	0x383f4424	4.560141e-05
224	0x394ffd4f	0.00019835423
225	0xb8cdbcdc	-9.8103395e-05
226	0x3938b3a4	0.00017614529
227	0xb9301887	-0.00016793805
228	0x390359da	0.00012526606
229	0x38a4076b	7.821511e-05
230	0xb93b3165	-0.0001785211
231	0xb89ce1e8	-7.480738e-05
232	0xb501cfcf	-4.8358646e-07
233	0xb6aa9d0d	-5.084678e-06
234	0x38c25778	9.266933e-05
235	0x37482e0b	1.1931649e-05
236	0xb9a67bbc	-0.00031754177
237	0x3837848c	4.3754044e-05
238	0xb9258be8	-0.00015787745
239	0xb958dc79	-0.00020681498
240	0x39a09638	0.000306295
241	0xb8a4ffe1	-7.8677906e-05
242	0x38a569ea	7.887541e-05
243	0x38e3efc2	0.00010868862
244	0xb5e320d3	-1.6922371e-06
245	0xb8e2bd2c	-0.00010811756
246	0x38c244ea	9.263477e-05
247	0xb933ff36	-0.00017165844
248	0xb845bcca	-4.7144284e-05
249	0xb8ee4705	-0.00011361953
250	0x398e3650	0.00027124817
251	0x38512828	4.986688e-05
252	0xb951dc06	-0.00020013758
253	0x3803f820	3.146392e-05
254	0xb94e37e7	-0.00019666516
255	0x3788eff7	1.6324206e-05

exp_avg_sq f4 [64, 1024, 1, 1]
0	0x3157828e	3.136083e-09
1	0x35a2120b	1.2075192e-06
2	0x351f52ed	5.935279e-07
3	0x357f060e	9.5003713e-07
4	0x342e56cf	1.6236594e-07
5	0x35c9bb8c	1.503025e-06
6	0x3457bb2b	2.0091527e-07
7	0x351dfd76	5.885589e-07
8	0x329b9723	1.8113104e-08
9	0x345466f4	1.9781493e-07
10	0x3381b860	6.040568e-08
11	0x35daa4d9	1.6290243e-06
12	0x34f40a4d	4.5456036e-07
13	0x34e73040	4.306221e-07
14	0x353769a5	6.8326545e-07
15	0x3580ad8b	9.587251e-07
16	0x35075910	5.042102e-07
17	0x3545bc4d	7.366223e-07
18	0x3548d44b	7.4814733e-07
19	0x3539eb64	6.926041e-07
20	0x3326c739	3.883108e-08
21	0x34ae1d37	3.2431282e-07
22	0x352204a9	6.0356484e-07
23	0x34a70727	3.1111378e-07
24	0x33bd12ff	8.804454e-08
25	0x34c01b99	3.5782867e-07
26	0x354fffd1	7.748577e-07
27	0x350fd5c8	5.3582744e-07
28	0x333d4c84	4.4074582e-08
29	0x35fc33d1	1.8790544e-06
30	0x35110a92	5.403209e-07
31	0x3558e116	8.0793814e-07
32	0x34d34a15	3.9355714e-07
33	0x35079484	5.050754e-07
34	0x35576066	8.023402e-07
35	0x35051909	4.958279e-07
36	0x3509304c	5.110676e-07
37	0x34ef4edc	4.4574597e-07
38	0x358b58c3	1.038214e-06
39	0x346c9345	2.2032789e-07
40	0x341f7b4d	1.4852885e-07
41	0x3504615f	4.9315526e-07
42	0x3516b09d	5.613636e-07
43	0x35927ca7	1.0914126e-06
44	0x351b3767	5.782262e-07
45	0x3525ce0c	6.176713e-07
46	0x346cdaeb	2.2058855e-07
47	0x32830451	1.525237e-08
48	0x32394efc	1.0786376e-08
49	0x35101946	5.368096e-07
50	0x34b7a452	3.4205965e-07
51	0x34cb8893	3.7911067e-07
52	0x35341ef1	6.710025e-07
53	0x3414a3da	1.3843183e-07
54	0x3504fa24	4.9537834e-07
55	0x35672738	8.6111277e-07
56	0x3471697d	2.248325e-07
57	0x35488c21	7.470972e-07
58	0x35414ccd	7.200986e-07
59	0x34cd699a	3.826106e-07
60	0x35405d98	7.166177e-07
61	0x3564bb19	8.520888e-07
62	0x349f5008	2.9674288e-07
63	0x34802099	2.3865576e-07
64	0x3545d019	7.369104e-07
65	0x35973eea	1.1268687e-06
66	0x34b957e5	3.4522887e-07
67	0x350a30ed	5.14802e-07
68	0x32107e9c	8.410691e-09
69	0x3507fce1	5.0659406e-07
70	0x3523d1b3	6.1027384e-07
71	0x352508aa	6.14799e-07
72	0x35507fff	7.7672297e-07
73	0x33edb871	1.1069722e-07
74	0x32f3aaf0	2.8366657e-08
75	0x35009749	4.7903865e-07
76	0x3326d41e	3.8842806e-08
77	0x34a893db	3.1400018e-07
78	0x351edbe3	5.9179564e-07
79	0x35428427	7.246294e-07
80	0x340ef80b	1.3315018e-07
81	0x3519e784	5.733384e-07
82	0x35c00965	1.4307849e-06
83	0x3398e317	7.119359e-08
84	0x34f20bee	4.5084693e-07
85	0x34e4b45b	4.2599535e-07
86	0x34ba9f8c	3.4761285e-07
87	0x351a5e0a	5.7506315e-07
88	0x34babf4e	3.4784392e-07
89	0x34db4fa1	4.0849866e-07
90	0x34edcf3d	4.4295476e-07
91	0x349b1346	2.8885023e-07
92	0x34341f85	1.6775273e-07
93	0x34c01ffc	3.5786059e-07
94	0x358d61aa	1.0533743e-06
95	0x357e2f2c	9.469102e-07
96	0x354a5245	7.537058e-07
97	0x352d973f	6.4667614e-07
98	0x31f8b4fb	7.238325e-09
99	0x349a12f2	2.869852e-07
100	0x33b6acd5	8.5064734e-08
101	0x35246754	6.1245123e-07
102	0x31b9f678	5.412229e-09
103	0x336d3897	5.523233e-08
104	0x33e3daf4	1.06103386e-07
105	0x3307e145	3.163702e-08
106	0x3507629f	5.043493e-07
107	0x35231739	6.0756025e-07
108	0x351f1634	5.9264426e-07
109	0x3514232d	5.5185484e-07
110	0x3532f68a	6.666893e-07
111	0x34ff5bbd	4.75642e-07
112	0x35848025	9.872061e-07
113	0x32106ac3	8.406178e-09
114	0x349b6fc9	2.8952334e-07
115	0x34b01819	3.2800088e-07
116	0x34c0499e	3.581635e-07
117	0x34700f7b	2.2357374e-07
118	0x3591e6b2	1.0870483e-06
119	0x35050be0	4.956364e-07
120	0x355a4657	8.1313686e-07
121	0x35ca6816	1.5080466e-06
122	0x34de0e97	4.1361338e-07
123	0x35086ee1	5.08253e-07
124	0x3517e19f	5.6580205e-07
125	0x349a70d3	2.8766826e-07
126	0x3501acc7	4.830767e-07
127	0x34839fa2	2.45168e-07
128	0x35aba243	1.2787717e-06
129	0x353af03b	6.963998e-07
130	0x35925ec7	1.0905432e-06
131	0x3561cef7	8.4120205e-07
132	0x34fa9537	4.6674697e-07
133	0x35512e41	7.7925876e-07
134	0x3351f36c	4.8882995e-08
135	0x34986142	2.838297e-07
136	0x3545e812	7.3725926e-07
137	0x34fff094	4.7672495e-07
138	0x34db43a9	4.0841158e-07
139	0x34cf7996	3.864522e-07
140	0x35243909	6.117776e-07
141	0x34e93b3b	4.3442728e-07
142	0x34bba5c4	3.4952075e-07
143	0x3525ffb0	6.1839364e-07
144	0x335bba82	5.115954e-08
145	0x34f9367f	4.6419515e-07
146	0x359ea02a	1.1818531e-06
147	0x34cd2bd0	3.8216103e-07
148	0x356cfa2c	8.82809e-07
149	0x351c12b8	5.814177e-07
150	0x347e89b6	2.3705692e-07
151	0x34bdba48	3.533953e-07
152	0x35941243	1.1032174e-06
153	0x35066b82	5.0075334e-07
154	0x3487a318	2.5264376e-07
155	0x354f21bf	7.7162616e-07
156	0x34b4e496	3.369393e-07
157	0x32059d57	7.777394e-09
158	0x34ef2bdf	4.454914e-07
159	0x319f78a5	4.6412247e-09
160	0x330d52ff	3.2904605e-08
161	0x353a1949	6.9327194e-07
162	0x3401a90b	1.2075559e-07
163	0x3607cbcc	2.0235193e-06
164	0x35b29c68	1.3307554e-06
165	0x359dadb4	1.1747966e-06
166	0x33148275	3.4577585e-08
167	0x34f17320	4.4973513e-07
168	0x35367d52	6.798265e-07
169	0x353076f5	6.5738215e-07
170	0x34f2bd56	4.5213773e-07
171	0x3530a9b6	6.581207e-07
172	0x3530a7f9	6.580954e-07
173	0x34d0b96b	3.8877928e-07
174	0x30eeed71	1.7384264e-09
175	0x34eb0982	4.377908e-07
176	0x3478201b	2.310848e-07
177	0x3531598e	6.606796e-07
178	0x333558d9	4.2223153e-08
179	0x353b7537	6.98335e-07
180	0x3538ec0b	6.888883e-07
181	0x34c3c98e	3.646823e-07
182	0x351352fe	5.4882537e-07
183	0x350afeda	5.1779864e-07
184	0x348a9195	2.5810428e-07
185	0x35b6303a	1.3574092e-06
186	0x34719d50	2.2502104e-07
187	0x349665a6	2.8013636e-07
188	0x355b4410	8.16829e-07
189	0x34aa86a1	3.1762923e-07
190	0x356ad6fb	8.748463e-07
191	0x3500095a	4.7697324e-07
192	0x3426956c	1.5514314e-07
193	0x35bbe2dc	1.399861e-06
194	0x35629bec	8.4418457e-07
195	0x34a818f8	3.1310606e-07
196	0x352d46ca	6.4550534e-07
197	0x35339dea	6.691249e-07
198	0x3524c916	6.138738e-07
199	0x34ee8523	4.4427824e-07
200	0x3584a8c6	9.883886e-07
201	0x34a99a3b	3.159092e-07
202	0x315b100e	3.187782e-09
203	0x3376db93	5.747604e-08
204	0x356c8f94	8.8125785e-07
205	0x323ecef8	1.1106515e-08
206	0x3581e359	9.677416e-07
207	0x3432682d	1.6615441e-07
208	0x35196ea3	5.715794e-07
209	0x354e8dfd	7.69476e-07
210	0x34b35955	3.3406346e-07
211	0x350f8677	5.3467323e-07
212	0x35653459	8.5385324e-07
213	0x354a5fc1	7.5390204e-07
214	0x32ff195a	2.9697436e-08
215	0x32641529	1.3276158e-08
216	0x3516de13	5.6202515e-07
217	0x3522fa06	6.0713535e-07
218	0x31c0bb37	5.6092193e-09
219	0x348ce349	2.6242404e-07
220	0x34bf21d3	3.5601133e-07
221	0x34ee15b9	4.434676e-07
222	0x33b4265e	8.388882e-08
223	0x35b9fd6c	1.385733e-06
224	0x351b032e	5.7746627e-07
225	0x3427af8a	1.5616948e-07
226	0x352f3468	6.526884e-07
227	0x35012f17	4.812477e-07
228	0x3527f5ba	6.256993e-07
229	0x34f3ce84	4.5412537e-07
230	0x3487eadd	2.5316595e-07
231	0x351d9baf	5.8713607e-07
232	0x34d625f4	3.988822e-07
233	0x34d09cf7	3.8857226e-07
234	0x3586bf5c	1.0039471e-06
235	0x35be6351	1.4185008e-06
236	0x36160a52	2.235775e-06
237	0x31faefae	7.303206e-09
238	0x35353fd3	6.752063e-07
239	0x3581d237	9.67243e-07
240	0x3581baa2	9.665566e-07
241	0x34814bfe	2.4083414e-07
242	0x34d56d48	3.9753854e-07
243	0x3440944f	1.7935348e-07
244	0x34d38579	3.9398927e-07
245	0x3495a7ea	2.7875586e-07
246	0x355ddcdc	8.265031e-07
247	0x354b54d1	7.574682e-07
248	0x351c87ac	5.831196e-07
249	0x34a04c9b	2.985806e-07
250	0x348947a4	2.5570364e-07
251	0x35960ccf	1.1179599e-06
252	0x3514a862	5.5379326e-07
253	0x32e1b624	2.6276275e-08
254	0x34ccbd9f	3.8135929e-07
255	0x34a5e58e	3.0900668e-07

exp_avg f4 [64]
0	0x2e61f3a9	5.137549e-11
1	0xaf4b991c	-1.8517138e-10
2	0xae7b6b47	-5.7166074e-11
3	0xae15e818	-3.408482e-11
4	0xae2aad05	-3.8807197e-11
5	0xaeebb984	-1.0719517e-10
6	0xaec08281	-8.754331e-11
7	0xaf34c2b9	-1.6440084e-10
8	0xab893f00	-9.751921e-13
9	0xaefb82bd	-1.1437382e-10
10	0xaf207bb9	-1.459587e-10
11	0x2f42ef82	1.7729287e-10
12	0x2e27d560	3.816092e-11
13	0x2f34f3af	1.6457478e-10
14	0x2fa1b36e	2.9413222e-10
15	0x2d04a099	7.538991e-12
16	0x2e8a3076	6.284122e-11
17	0xae021ad2	-2.95824e-11
18	0x2f38c06e	1.6803067e-10
19	0x2f16162f	1.3650302e-10
20	0xae223950	-3.688544e-11
21	0x2f2c4ad4	1.5669893e-10
22	0x2f80aa8e	2.340425e-10
23	0x2f48ca1e	1.82617e-10
24	0xad77c13e	-1.4083233e-11
25	0x301c797d	5.6925115e-10
26	0x2e3a4c49	4.235926e-11
27	0xae1ae29a	-3.521681e-11
28	0x2d7fcc8e	1.4540492e-11
29	0xaeb15851	-8.064716e-11
30	0x2e5d8957	5.0371565e-11
31	0xae27ddea	-3.8168503e-11
32	0x2da59fd0	1.88293e-11
33	0xae76680f	-5.6026347e-11
34	0x2e07c94f	3.0874244e-11
35	0xaf20b753	-1.4617045e-10
36	0x2ea6f561	7.592394e-11
37	0xada217bb	-1.8427806e-11
38	0xae333e45	-4.0755194e-11
39	0xae2ddfaa	-3.95343e-11
40	0xaeb4ff06	-8.2307536e-11
41	0x2f8c79e1	2.5552452e-10
42	0x2ea6716d	7.5689545e-11
43	0xae9b3cdd	-7.0593954e-11
44	0x2ddb719b	2.4947868e-11
45	0xaf035bac	-1.1946949e-10
46	0xae9f4594	-7.2428424e-11
47	0xaf29d27f	-1.5445244e-10
48	0xaf144a56	-1.3486931e-10
49	0xaf2f64db	-1.5951988e-10
50	0xaf511897	-1.9017175e-10
51	0xae394b4c	-4.2131007e-11
52	0x2d81dc1b	1.4763349e-11
53	0xae6fb834	-5.4505914e-11
54	0x2c4636f4	2.8167997e-12
55	0x2da317a9	1.8541462e-11
56	0x2f06054d	1.2189112e-10
57	0xae04a9bc	-3.016408e-11
58	0xaed64dff	-9.745448e-11
59	0xaf487c2e	-1.8234012e-10
60	0xaf3653ad	-1.6582531e-10
61	0x2d6bdd82	1.3407388e-11
62	0xaea049cf	-7.289069e-11
63	0x2e13c118	3.3595432e-11

exp_avg_sq f4 [64]
0	0x1fb07c7a	7.474483e-20
1	0x211b18f7	5.2549083e-19
2	0x200ffd03	1.2196286e-19
3	0x1fc07b6a	8.1519334e-20
4	0x20fbd33b	4.2660835e-19
5	0x20b6a9ef	3.0944452e-19
6	0x20cc1d7c	3.4578455e-19
7	0x206a0dce	1.9825139e-19
8	0x1f9ddba1	6.685543e-20
9	0x20828345	2.2109724e-19
10	0x20aa7eda	2.8883064e-19
11	0x20245e0e	1.392246e-19
12	0x207f4ec8	2.1625407e-19
13	0x20d55175	3.6137507e-19
14	0x20aa657a	2.8866272e-19
15	0x206aacb5	1.9877715e-19
16	0x20e47594	3.870251e-19
17	0x20055b3b	1.1295724e-19
18	0x20bd1d73	3.2037333e-19
19	0x201b712a	1.3166454e-19
20	0x1f52b9cf	4.4622927e-20
21	0x2031ecf8	1.507089e-19
22	0x2120d280	5.4488703e-19
23	0x2080f7f4	2.1848125e-19
24	0x20b4e690	3.064576e-19
25	0x219e719a	1.0736567e-18
26	0x209ed849	2.6909367e-19
27	0x1fc7a7fc	8.4557685e-20
28	0x20806286	2.174924e-19
29	0x20975724	2.563806e-19
30	0x211aba78	5.242402e-19
31	0x205c6893	1.8669326e-19
32	0x1fd3f97f	8.977473e-20
33	0x1f83585f	5.5626856e-20
34	0x20155e89	1.265207e-19
35	0x208cdfff	2.386515e-19
36	0x2112be09	4.9718234e-19
37	0x2093b9da	2.5025755e-19
38	0x200cf468	1.1939329e-19
39	0x209e0d9e	2.6775252e-19
40	0x20278f43	1.4192852e-19
41	0x213ce3c0	6.39983e-19
42	0x20cf3a03	3.5105553e-19
43	0x20ede946	4.030373e-19
44	0x20e55cc6	3.8855501e-19
45	0x20e22b97	3.8314735e-19
46	0x2012917f	1.2414822e-19
47	0x20bafe69	3.167798e-19
48	0x2015c000	1.2684318e-19
49	0x219220a5	9.901986e-19
50	0x21b20b69	1.2064769e-18
51	0x20bd0dd9	3.202701e-19
52	0x1fe85dc2	9.841093e-20
53	0x1fd3b5be	8.966264e-20
54	0x20f70900	4.1849383e-19
55	0x20a0c824	2.7237496e-19
56	0x1fd94fac	9.203488e-20
57	0x20f84d0b	4.2063817e-19
58	0x2015c701	1.2686636e-19
59	0x20b91abd	3.1357913e-19
60	0x21017bd3	4.387078e-19
61	0x20f7b9fc	4.1966502e-19
62	0x22282639	2.278848e-18
63	0x20c87cc7	3.3963889e-19

exp_avg f4 [64]
0	0x382b0298	4.0771993e-05
1	0x38bbdb8b	8.957748e-05
2	0x38d0be92	9.9537094e-05
3	0xb629c4f6	-2.5297609e-06
4	0xb9527d31	-0.00020073798
5	0xb95ac546	-0.0002086359
6	0xb92884e9	-0.00016071241
7	0xb8ae4c5c	-8.3111896e-05
8	0xb8770c42	-5.8900805e-05
9	0xb8e3c27f	-0.00010860431
10	0xb91fdd3d	-0.0001524584
11	0x36dc0f54	6.5582954e-06
12	0xb887ea06	-6.480892e-05
13	0xb8be3aec	-9.070881e-05
14	0xb7b1ee5d	-2.121104e-05
15	0xb840ffb1	-4.60145e-05
16	0x39662a3f	0.00021950247
17	0xb8841fe7	-6.300193e-05
18	0x3831ab8d	4.2359858e-05
19	0x37a29d4c	1.9385152e-05
20	0x37ea0f98	2.7902235e-05
21	0x3880fcdc	6.150614e-05
22	0x38809291	6.130816e-05
23	0x38d38944	0.00010086832
24	0xb7a7415e	-1.993839e-05
25	0xb999d6a4	-0.00029342354
26	0xb99bbf70	-0.00029706536
27	0x38dfd7d5	0.000106736705
28	0x373aaefa	1.1127204e-05
29	0xb6825361	-3.8840085e-06
30	0xb9455451	-0.00018818794
31	0x39a3f4f0	0.00031272275
32	0x394d8973	0.00019601527
33	0xb8d2b495	-0.00010047216
34	0x38766884	5.874831e-05
35	0x393a289c	0.0001775347
36	0x39151537	0.0001421765
37	0x3809ba65	3.283694e-05
38	0x38bf2044	9.1136e-05
39	0x389e6319	7.5524855e-05
40	0xb7866533	-1.602117e-05
41	0x355e5bd5	8.283508e-07
42	0x38a2766d	7.7468205e-05
43	0xb9a20cef	-0.00030908684
44	0x37991b33	1.8251687e-05
45	0x38b38b93	8.561383e-05
46	0x391d7faf	0.00015020253
47	0xb904f420	-0.00012679445
48	0xb8946588	-7.0761016e-05
49	0x381ebd46	3.784641e-05
50	0x390c0df6	0.00013356641
51	0xb91d54d0	-0.00015004282
52	0x37f3b8ff	2.9054003e-05
53	0x3667badc	3.4530449e-06
54	0xb865f933	-5.482994e-05
55	0xb894e5e2	-7.100009e-05
56	0x391f9b12	0.0001522119
57	0x38486213	4.7775055e-05
58	0x3807ae59	3.2348882e-05
59	0x38b7468e	8.739262e-05
60	0x38769ad8	5.879518e-05
61	0xb7e4b879	-2.726562e-05
62	0x37ffac4b	3.0478599e-05
63	0x3889845f	6.557325e-05

exp_avg_sq f4 [64]
0	0x3431078a	1.6487152e-07
1	0x350bf500	5.2138057e-07
2	0x34874786	2.519775e-07
3	0x34000c5f	1.192543e-07
4	0x35195e94	5.713457e-07
5	0x3428036c	1.5647464e-07
6	0x34dd19a7	4.1183122e-07
7	0x34242849	1.5288346e-07
8	0x346a355c	2.181236e-07
9	0x34b2ead5	3.3325946e-07
10	0x34be67e2	3.5465843e-07
11	0x34b6e8de	3.4069575e-07
12	0x34d48870	3.9587349e-07
13	0x343ea918	1.7756645e-07
14	0x34c283c0	3.6231177e-07
15	0x347ebcfc	2.3724346e-07
16	0x350bb269	5.2041156e-07
17	0x33f6a78d	1.1485745e-07
18	0x34afeee1	3.2770097e-07
19	0x33f80993	1.15501415e-07
20	0x33a0820a	7.4742346e-08
21	0x34a5a4f9	3.0853678e-07
22	0x353820ea	6.859324e-07
23	0x344953ca	1.8750066e-07
24	0x34a13c4c	3.003246e-07
25	0x359f99cf	1.1891187e-06
26	0x34888f1d	2.5436103e-07
27	0x33b374ea	8.3566036e-08
28	0x3403d5af	1.2278063e-07
29	0x346819d4	2.161608e-07
30	0x355250c4	7.8348626e-07
31	0x349f47bc	2.9668251e-07
32	0x343e2061	1.7706908e-07
33	0x33e29761	1.0551481e-07
34	0x34039791	1.2255465e-07
35	0x349eaa93	2.9553902e-07
36	0x349d5729	2.9306946e-07
37	0x34d10005	3.8929298e-07
38	0x33fe43bd	1.1840118e-07
39	0x35088ec1	5.087168e-07
40	0x34c2f13d	3.631084e-07
41	0x34f73e7a	4.6052793e-07
42	0x34c6950c	3.698882e-07
43	0x35079eae	5.052233e-07
44	0x34c02141	3.5786982e-07
45	0x3489b81e	2.5652201e-07
46	0x34284124	1.5669917e-07
47	0x34a826fa	3.1320798e-07
48	0x34649c1e	2.129095e-07
49	0x355a5c6f	8.1345837e-07
50	0x353ca9b3	7.02824e-07
51	0x34e22b58	4.2127317e-07
52	0x34134302	1.3714819e-07
53	0x3392d5c9	6.837542e-08
54	0x352652d2	6.196034e-07
55	0x349e8053	2.9523162e-07
56	0x3448ae81	1.8689936e-07
57	0x34892748	2.554682e-07
58	0x346de1bb	2.2154465e-07
59	0x35250a3e	6.1482194e-07
60	0x345e4098	2.069886e-07
61	0x352ebdb2	6.5096094e-07
62	0x359aa683	1.1522355e-06
63	0x341df4e0	1.471085e-07
