checkpoints/attempt11_40bins_point8_06_visgen_coco17tr_openimagev7traine_320p_qual_20_24_28_32_36_40_50_smooth_2_subsam_444/best_model.pt (torch, 854882 bytes, 31 tensors)

reduce.0.weight f4 [64, 1024, 1, 1]
00000000: 9342 203c 0e74 873c 7dd3 7cbc 13b9 863c
00000010: 34c1 03bc 80ae bcbc 4e98 b0ba 3062 c43c
00000020: d37a 93bc 8500 ec3c 6c9c f9b9 cfd0 1dbc
00000030: bc79 e43c 9f2b 48bc 3793 95bc 93df bf3c
00000040: 78ca d8bc 10d3 d2bc 3f2e 44bc 0f9b 8e3c
00000050: 3cb2 2a3b 98b3 d83b 083c b6bb 5675 ad3c
00000060: d8b7 46bb 97e9 ec3c e2e0 f43c 8031 d93b
00000070: f969 ebbb f9ab 993c 29e6 88bc 5ffa cabc
00000080: ce06 c73c 89ea d3bc 5749 f7bc f690 923c
00000090: f6ae 7cbb 7cff 85bc 6c26 343c bb76 d8bb
000000a0: feb4 fabb ea1f dbbc 5b84 043c 6bcb 863c
000000b0: 7494 59bc 2ba1 febc a9a0 8738 7995 c83b
000000c0: a757 663b 4208 57b9 d3ae 8dbb e46f b7bc
000000d0: 3367 30bc dd7b ebbc 3ad5 d83c 783c 573b
000000e0: e86d 95bc 6910 0a3b b77f b8bc 13a4 ec3c
000000f0: 55ef 23bc f730 6ab8 2ca1 d1bc fd55 833c
00000100: ef22 f13c 7063 23bb 9b51 e9bc c461 80bc
00000110: e373 ef3c b130 ea3c a25e d73c 6b42 cd3c
00000120: 7000 883c 3d62 06bc 70f1 94bb 7238 09bb
00000130: 7fbb 3bbc 3ede f0bc 3d35 863c fa2a 4a3c
00000140: 3f06 ce3c 612e 92bc d025 adbc b2e0 fb3c
00000150: 8d67 b53c 2968 92bb b2e0 a63b 033f 163b
00000160: 8cdd bbb9 41f3 ac3c cda1 5e3c 09fb 263b
00000170: dd82 27bc 89ac 9abc c3fb 97bc 123e efbc
00000180: 279c a7bb 0878 f83c c302 fd3c cf6c e13c
00000190: df58 ba3c 61a9 76bc a4ac ab3c 54d0 7f3c
000001a0: c995 003d 327a 993b 0ced 13bc 6b83 033b
000001b0: a044 623c 0c86 d53c 44dd d1bc c00c 5e3c
000001c0: 8c5d a63c 21c4 e7bb 976d 983c ae71 1a3c
000001d0: 0220 ef3c 6148 ad3c 2949 f1b9 3f21 c3bc
000001e0: b29d ccbb fa15 5fbc dbe9 59bc 0db9 88bc
000001f0: df82 c03c 4b07 923c adfd 1e3b 6958 efbc
00000200: 677c 973c 7152 91bc 40f1 d33c 254f 52bc
00000210: 8df4 37bc bc12 37bc be83 cc3c f02d eb3c
00000220: 25a5 db3c d584 b8bc 8925 1a3c 1d5b 8ebb
00000230: 65a5 d33c 908b 193b 0369 c03c 7fed b3bc
00000240: 85d0 fabc 4308 83bc 1726 b5bb ccce cc3c
00000250: 4c65 7bbb f66d a2bc aa3a 923c 1b93 c83c
00000260: e7e9 ac3c 650e d9bc 2cee cb3c e5d5 8abc
00000270: ba15 a63c 4f81 b83a 66db 8cbc 783c b4bb
00000280: d18e ddbc fb13 f9bb 7a90 b43b 2dd4 5838
00000290: 01ef a1ba 8981 f03c 62b8 1f3c 4026 c3bc
000002a0: ebd3 e83c 00be fc3b 5c51 c7bb 6cc3 8d39
000002b0: 8525 80bc fb65 333c 4dd7 cc3c f5f0 de3c
000002c0: 4348 e33c e3a2 efbb 7d31 8bbc ae91 a63c
000002d0: 231d fb3c 5b87 a4b9 2e31 c8bc f5df e2bc
000002e0: 2702 86bc 8f28 a53b 7e3b 80bc 11a1 06bc
000002f0: 3e58 363c 4e09 eabb 240f 4fbc 5951 9e3c
00000300: 56e7 ca3b fd3d 113c defa fb3c ad5b 9c3c
00000310: b47e 0fbc 8d6e 7e3c 5aae c5bc d82a cf3c
00000320: abad 7fbb 3dbf 333c 0d21 973a 1c36 603c
00000330: 64b3 363c 5269 b23b 260f be3b 9bb5 71bc
00000340: 9d6e e8bb a044 f93c 889c d13c 8e14 e6bc
00000350: 3faa d13c f150 d2bc 7934 bcbb 24af dcbc
00000360: 1157 c1bc 2e09 2d3b 016e ee3c 54c9 0abc
00000370: 07a2 e4bb 431a 5abc 8061 db3b 2a00 e9bc
00000380: b9ba 96bc 53bf d0bc dc8d aebb 8350 fbbc
00000390: 1de7 ff3c 49f3 f23b 5fd4 70bb 02d5 cf3a
000003a0: 1b2a 953c 809c c13c 96f1 d0bc 0143 4d3c
000003b0: ee41 7fbc 859d a7ba 8a51 ecba 7094 563c
000003c0: 7cda 46bc a12b a53c 899b 443c 8290 c4bc
000003d0: f454 ef3c 787e 65bc 8143 f63c e23f 98bc
000003e0: 4fee 9cbc 39d1 f1bc 8fff a6bc 9de5 8d3c
000003f0: 106e c7bc 908a d5bc 69f2 c8bc 1cbc 0cbc
0.0097814975 0.016534831 -0.015431282 0.016445672 -0.008041669 -0.023032427 -0.0013473125 0.0239726
-0.018002903 0.028808841 -0.00047609524 -0.009632303 0.027890079 -0.012217431 -0.018258674 0.023422038
-0.026463732 -0.025735408 -0.011973917 0.017407922 0.0026046177 0.006613206 -0.0055613555 0.021174114
-0.0030321982 0.028919978 0.029892389 0.0066282153 -0.007184264 0.01875876 -0.016711311 -0.02477759
0.024295237 -0.025868671 -0.030186338 0.017891388 -0.0038556433 -0.016357176 0.010995489 -0.0066059506
-0.0076509705 -0.026748616 0.008088197 0.01645442 -0.013280023 -0.03108271 6.467227e-05 0.006121334
0.003514746 -0.00020507074 -0.004323819 -0.02239222 -0.010766792 -0.028745586 0.026468862 0.0032842439
-0.018240884 0.002106691 -0.022521837 0.02888683 -0.010005792 -5.583555e-05 -0.025589548 0.016032213
0.029435603 -0.0024931096 -0.028481295 -0.015671618 0.029230064 0.028587671 0.026290242 0.025056085
0.016601771 -0.008202133 -0.004545383 -0.0020938185 -0.011458277 -0.029402848 0.016382808 0.012339348
0.025149463 -0.01784438 -0.021136194 0.030746792 0.022144103 -0.0044679833 0.0050927037 0.0022925742
-0.00035832485 0.021112086 0.013588381 0.0025479218 -0.010224071 -0.0188811 -0.018552667 -0.029204402
-0.0051150504 0.030330673 0.030885106 0.027517704 0.022747455 -0.0150550315 0.020956345 0.015613634
0.031392846 0.0046837563 -0.009028684 0.0020067345 0.013810307 0.026064895 -0.025618203 0.0135528445
0.020308279 -0.007072941 0.018606944 0.009426517 0.029190067 0.021152677 -0.0004602161 -0.023819564
-0.0062443847 -0.013616079 -0.013300384 -0.016689802 0.023499904 0.017825743 0.002426009 -0.029216962
0.018491937 -0.017739506 0.025871873 -0.012836252 -0.011227739 -0.0111739 0.024965163 0.028708428
0.026812145 -0.022524277 0.009408363 -0.0043443576 0.025835702 0.0023429133 0.023487573 -0.021963833
-0.030617008 -0.01599515 -0.0055282223 0.025000952 -0.0038359938 -0.019827824 0.017850239 0.024484208
0.021107627 -0.026496122 0.024893843 -0.016947696 0.020274032 0.0014076623 -0.017194461 -0.0055003725
-0.02704564 -0.007601259 0.005510387 5.1696017e-05 -0.0012354554 0.029358642 0.00974855 -0.02382195
0.028421363 0.0077130795 -0.006082697 0.00027039216 -0.01564289 0.010949607 0.025005007 0.027214507
0.027744418 -0.007313119 -0.016991371 0.020333137 0.030653542 -0.00031381365 -0.024437513 -0.027694682
-0.016358448 0.0050402354 -0.015653368 -0.008217112 0.011129437 -0.0071422225 -0.012637887 0.019325899
0.006192128 0.008864877 0.030759271 0.019086683 -0.008758236 0.015529287 -0.024130989 0.025288984
-0.0039013426 0.010970888 0.0011530236 0.013684776 0.0111511685 0.005444684 0.0058001457 -0.014752771
-0.0070932643 0.03042823 0.025587335 -0.028085973 0.025593875 -0.025673361 -0.00574356 -0.026938982
-0.023601087 0.0026403177 0.029105188 -0.008470852 -0.006977323 -0.013311925 0.0066949725 -0.028442461
-0.018399583 -0.025481855 -0.0053269695 -0.03067804 0.031238133 0.0074142558 -0.0036747677 0.0015856328
0.018208554 0.023634195 -0.025505822 0.012528182 -0.015579684 -0.0012788033 -0.0018029672 0.013096914
-0.012137052 0.020162405 0.011999973 -0.023994688 0.029215313 -0.014007203 0.030061485 -0.01858515
-0.019156603 -0.02951871 -0.020385532 0.017321402 -0.024344474 -0.026067048 -0.024529653 -0.008589771

reduce.0.bias f4 [64]
00000000: 0f23 87bc 4cc1 ab3c b471 593c e54a 953c
00000010: 32a7 ef3c dd60 a73c 3b17 823c fa20 5d3a
00000020: 1655 e1bb baf8 ebbc b1f1 f1bb be37 8f3c
00000030: a489 6d3c c813 cbbc e708 d6bb e069 d339
00000040: 5ab0 b0bc a72d 09bc 1d58 8c3c 7492 3f3c
00000050: cdc3 c4bc 4045 f0bc 58d1 a6bc 90c5 9cb9
00000060: 9d4c c23c 40a3 a0bb cc0a 073c 9321 823c
00000070: e607 97bb cc1d 6a3c 95fa 723c 03f1 f33c
00000080: 2dba 75ba 6839 84bc 2f06 e5b6 a957 d6bb
00000090: 3e3f 863c a9e4 da3c cf2f d63c abb8 6ebc
000000a0: 4bf1 6f3c 50d1 bfbc 0362 683c f80f f4bc
000000b0: 1029 e2bc 78c3 dcbc f118 a43c f3ab 8d3c
000000c0: ed27 d6ba a5ec b93c 01ce b83c 0f5e 763c
000000d0: 5194 ed3c 6569 efbc 9ea9 663c 7d5a 85bc
000000e0: fb15 243a 6e96 81bc 7c55 8f3c cb53 793c
000000f0: e7cd ac3c a3fb efbc 2caf ce3b 4220 44bc
-0.01649621 0.020966195 0.013271738 0.018224189 0.02925453 0.02043193 0.015880218 0.0008435395
-0.006876598 -0.028805126 -0.007383548 0.017482635 0.014498148 -0.024789706 -0.006531823 0.0004032394
-0.021568466 -0.008372701 0.01713186 0.011692632 -0.024019146 -0.029329896 -0.020363495 -0.00029901834
0.023718173 -0.0049022734 0.00824232 0.01588515 -0.004609096 0.014289331 0.014830251 0.02977801
-0.00093737507 -0.016140655 -6.8254517e-06 -0.0065412116 0.016387578 0.026720362 0.026145844 -0.014570395
0.014644931 -0.023415238 0.014183524 -0.02979277 -0.02760747 -0.026948676 0.020031424 0.017293906
-0.0016338803 0.022695849 0.022559168 0.015037074 0.029001387 -0.02922506 0.014078526 -0.0162785
0.0006259379 -0.0158188 0.017496817 0.015217732 0.021094276 -0.029294794 0.006307503 -0.0119705815

reduce.1.weight f4 [64]
00000000: dee9 7f3f 97f9 7f3f 6606 803f 7af2 7f3f
00000010: 21e3 7f3f 810e 803f adfc 7f3f 56fd 7f3f
00000020: 510a 803f cafe 7f3f 30e9 7f3f 76fa 7f3f
00000030: 6d00 803f 11f9 7f3f df02 803f 7800 803f
00000040: 4001 803f bc0a 803f 8a04 803f 12f2 7f3f
00000050: 8e06 803f 84ea 7f3f 1205 803f 3b02 803f
00000060: 0af2 7f3f 52f0 7f3f 34f1 7f3f 7df9 7f3f
00000070: 15ff 7f3f 68fa 7f3f 110c 803f b9fc 7f3f
00000080: d103 803f 9406 803f 7401 803f 29fe 7f3f
00000090: 1601 803f 1b03 803f 9d0d 803f 8bf0 7f3f
000000a0: 150a 803f 12ea 7f3f 8efd 7f3f 5b03 803f
000000b0: 1ef0 7f3f 680c 803f 0404 803f a6ee 7f3f
000000c0: 8df1 7f3f 55fc 7f3f 9ee6 7f3f d0ee 7f3f
000000d0: 7e0b 803f 8ef7 7f3f 5008 803f ac08 803f
000000e0: 3efb 7f3f 62eb 7f3f f4f3 7f3f 14f9 7f3f
000000f0: bcf4 7f3f 3cee 7f3f b3fa 7f3f a0e2 7f3f
0.9996623 0.9999022 1.0001953 0.99979365 0.99955946 1.0004426 0.9999493 0.99995935
1.0003148 0.9999815 0.9996519 0.9999155 1.000013 0.9998942 1.0000876 1.0000143
1.0000381 1.0003276 1.0001385 0.99978745 1.0002 0.9996722 1.0001547 1.0000681
0.999787 0.99976075 0.9997742 0.99990064 0.999986 0.99991465 1.0003682 0.99995
1.0001165 1.0002007 1.0000443 0.9999719 1.0000331 1.0000948 1.0004154 0.99976414
1.0003077 0.9996654 0.9999627 1.0001024 0.99975765 1.0003786 1.0001225 0.99973524
0.9997795 0.99994403 0.9996127 0.99973774 1.0003507 0.99987113 1.0002537 1.0002646
0.9999274 0.9996854 0.9998162 0.9998944 0.9998281 0.9997289 0.9999191 0.9995518

reduce.1.bias f4 [64]
00000000: 7179 91b9 3e24 3538 8834 12b9 12ad 5d39
00000010: 2aea 0cb9 220d 1eb9 5b02 45b9 10fb 5ab8
00000020: af0c 98b9 a5ed 40b9 c5d5 edb9 24a3 2739
00000030: b0f3 08b9 b59b 8638 fad2 a6b9 d25c d5b9
00000040: 77e7 5d39 4c0e 0039 4250 1737 3f6c 4e39
00000050: b6b9 7839 909e 72b8 15b3 74b9 94ba 08b9
00000060: 9f5e d5b8 fd7f b539 a93f 5bb9 50b2 1e39
00000070: 7066 6cb5 075d d6b7 1323 053a f25d ab37
00000080: 0b08 6d39 b2a6 a0b9 70e5 61b8 bcf0 cab9
00000090: 673f d637 57f4 b038 9caf d739 6699 afb9
000000a0: a445 abb7 e2ef 9338 1d98 a238 5f79 2139
000000b0: b1c5 5e38 52ad a839 1669 b939 738b edb9
000000c0: e30b 2139 ccfd acb9 18ee 08ba 75ac 2c38
000000d0: 169e ce39 e878 60b8 29b4 45b8 0fb6 6839
000000e0: 156f 2338 16a9 3ab8 ed84 11b9 16ad 5ab9
000000f0: 2076 e939 cf0f a3b9 6618 dab7 df7d e8b9
-0.00027747036 4.3187516e-05 -0.00013943214 0.00021140676 -0.00013438673 -0.00015072947 -0.00018788262 -5.220907e-05
-0.0002900115 -0.00018399076 -0.00045363433 0.00015987136 -0.00013060751 6.4186206e-05 -0.00031819177 -0.00040695682
0.0002116243 0.00012212357 9.018988e-06 0.00019686016 0.00023720306 -5.784497e-05 -0.00023336367 -0.00013039476
-0.00010174256 0.0003461837 -0.00020909183 0.00015134481 -8.806592e-07 -2.5554107e-05 0.0005078774 2.0428535e-05
0.00022605078 -0.00030641776 -5.385786e-05 -0.00038707803 2.5540312e-05 8.437846e-05 0.00041138835 -0.00033492892
-2.0417217e-05 7.054188e-05 7.753095e-05 0.00015399371 5.311304e-05 0.0003217259 0.00035364245 -0.0004530806
0.00015358585 -0.0003299549 -0.0005223467 4.116861e-05 0.00039409165 -5.3518364e-05 -4.7136247e-05 0.00022193066
3.896568e-05 -4.450333e-05 -0.00013877796 -0.0002085458 0.00044529233 -0.0003110156 -2.5998987e-05 -0.0004434427

reduce.1.running_mean f4 [64]
00000000: d27b e43d 2dfe be3c fa2d b3bd 17b8 b53e
00000010: b498 e03d 1ab0 8b3c c90c 8abd a591 02be
00000020: 20c5 a8bc 2179 e3be 250f cb3d a3af 993d
00000030: 70ac 5abe 8003 a73d 8e25 9abe f6ba 7cbe
00000040: 1ebb 5d3d 0719 e5bd ba14 853e 3c64 113d
00000050: c608 0e3e 985a 09be 5906 9f3d 0320 b4bd
00000060: df3f 5dbe 4509 4e3e 7973 77bd 1d88 103e
00000070: b1cd 4e3e 9833 e6bd 1ced 6a3c e753 06be
00000080: 1726 c638 9e92 3bbe e19c 6b3c fdc9 d7bd
00000090: 0f2e 94bd 628b f03d 4fac 453d 7b10 c53d
000000a0: 53f6 68be 50ba dfbd 69f0 d1bc 661a 4dbd
000000b0: 4225 e0bc b59a 7bbe 9c0e 373e 58e5 b93d
000000c0: 54f6 2f3d 6364 813d 1c4c d7bd 4741 1d3d
000000d0: 47a5 cc3d b37f ca3d dd53 c3bd 66ee d73d
000000e0: 3140 0fbe f4be 0c3d 5cbf d43d 57f3 213e
000000f0: 0929 30bd 60c3 10bc c704 9abd 99fa 8dbd
0.11156429 0.02331456 -0.08749004 0.35492012 0.10966626 0.017051745 -0.0674072 -0.12750871
-0.020601809 -0.44428352 0.09914998 0.07504203 -0.21354842 0.081549644 -0.30106777 -0.24680695
0.054133527 -0.11186414 0.25992376 0.03549598 0.13870534 -0.13413465 0.077648826 -0.08795168
-0.21606396 0.20120724 -0.060412858 0.14114423 0.20195653 -0.112403095 0.014338758 -0.13117944
9.4484705e-05 -0.18317649 0.014380665 -0.10536573 -0.072353475 0.11745335 0.04826003 0.09622284
-0.22750215 -0.10924208 -0.025627332 -0.050074004 -0.027361516 -0.24570735 0.17876667 0.09076947
0.042959526 0.06317975 -0.105125636 0.03839233 0.09992462 0.09887638 -0.0953748 0.10543518
-0.13989331 0.034361795 0.103880614 0.15815483 -0.043007884 -0.0088356435 -0.075204425 -0.06932563

reduce.1.running_var f4 [64]
00000000: 4153 8e3d 8f33 8f3d c850 8f3d 8f25 863d
00000010: 4f29 d53d 4960 813d 5a28 943d 9358 8e3d
00000020: 5015 833d 2f46 7d3d 927e 893d 73d7 733d
00000030: dc9a 853d 7285 8c3d fbeb 773d 990d 873d
00000040: e05a 923d dd44 953d fc4e 7f3d 29bd 903d
00000050: 05ba 663d 22ee 673d b493 873d 9ec7 783d
00000060: aeaf ac3d e031 9e3d 12cf 953d 2732 e23d
00000070: 08e0 7f3d ca6c 823d 3cb6 8e3d a6c0 9a3d
00000080: 6dd7 ac3d caea 643d 4973 c13d 0b4b 9f3d
00000090: acab 853d 2335 903d ae99 9b3d 49a3 783d
000000a0: 6c0d 823d 0e3b 883d 0517 8b3d 5a8b 8e3d
000000b0: 649b 8f3d d77a 953d 24c3 803d 5e03 963d
000000c0: dffe 823d 7a4e 803d afe4 8e3d 7208 753d
000000d0: f7e9 a93d b0a2 a43d 7dc0 713d 7a0e 653d
000000e0: 14f7 bd3d 7ca1 9d3d 1d94 943d 62d7 b23d
000000f0: 6963 883d 3a4a 8d3d 62fc 8a3d 86c2 613d
0.06949473 0.06992256 0.0699783 0.065501325 0.104082696 0.06317193 0.07234259 0.06950488
0.064005494 0.06183451 0.067135945 0.05953164 0.06523678 0.0686139 0.060527783 0.065943904
0.07146239 0.07288525 0.062331185 0.070673294 0.056329746 0.056623586 0.06619969 0.060737245
0.08431946 0.07724357 0.07314886 0.11044722 0.062469512 0.06368406 0.06968352 0.07556276
0.08439527 0.055887975 0.09445817 0.07777985 0.065268844 0.07041385 0.075976714 0.060702596
0.06350216 0.06651889 0.067915 0.06960173 0.0701206 0.072988205 0.0628722 0.07324861
0.06396269 0.06264968 0.06977212 0.059822507 0.082965784 0.08038843 0.05902146 0.05592201
0.09275642 0.07696816 0.07254813 0.08732487 0.06659586 0.06898923 0.067864195 0.055117153

mlp.0.weight f4 [32, 128]
00000000: 4c35 b4bc a906 6cbd e261 22bb 8c88 81bd
00000010: 6a5c 3b3d 2a12 763c 8940 43bd 45ba b0bc
00000020: 8086 553d d1e8 8a3d bc1b 4ebd 44d3 9cbc
00000030: dc70 913c 70b5 573d c26a c3bc 2a70 47bc
00000040: 056e 073d 4e73 60bd 4acf 93bd faef 98bd
00000050: 8622 203c 5a06 8b3d a06a 9d3d 8d88 b0bd
00000060: b141 873d 19ff 0f3d 887b f93c 7898 463d
00000070: 9a6b 503d 5091 49bc fbf3 15bd a00e e4bc
00000080: d013 7cbd 89a1 943c 4e63 56bd ec8b 353d
00000090: fa47 a9bd 2256 6fbd fa38 aebd 2244 d73c
000000a0: 45ec 773c 1fce 5fbd f2cb 62bc 3c89 113d
000000b0: 6d8a 2a3d bd26 91bd f26f aebd 731c 6cbd
000000c0: a547 94bd e410 80bd bc1d 293d c5f8 183d
000000d0: a002 9a3d 8aad 843d 8a84 a13c 382b 253d
000000e0: 2126 f83c 62b6 473b b73f 933d d9d3 fbbc
000000f0: 2eea 0a3d 680d 9d3c 68d8 ebbc 9cf1 973d
00000100: b589 783c bc5e cf3c 3be0 ea3c c325 88bd
00000110: a698 6d3c 9326 713c d059 18bd 7c47 a8bc
00000120: 3d62 39bd 7584 0339 16de 983d 242c 5c3d
00000130: d00e 0ebd 8e18 143d 2276 903c 3bcd 63bd
00000140: e4df 7e3d 1c08 82bd e702 bb3b 40fa 84bd
00000150: ca3e a03d 8ce8 753d 4f0c fe3b 5efd 403b
00000160: bf98 0a3d 3b1f 2b3c a0ba bbbc 58a7 4c3c
00000170: d5f3 68bd 10b6 eebb 502e ab3d 7b3c 55bd
00000180: ecbc 69bd 1715 47bd b629 433d b8cd d53c
00000190: f3ee 00bd cdb5 a93d 6f40 4bbd 6f07 6abd
000001a0: e358 6cbd c5ea 58bd 728b f33c 470f babc
000001b0: 838a a1bd 6c38 dd3b 0692 a5bd 1252 313c
000001c0: ce7d 42bd 1844 3dbd 8072 67bd 7013 4cbd
000001d0: 1b45 f33c b16f e1bc 2b87 643c 848a 26bc
000001e0: fd69 833d 2ef3 5b3d 4eb3 483d 9313 703d
000001f0: c7b2 0f3c f781 73bd 3086 4d3d 79ce 4dbc
00000200: 6226 adbd 6f39 8e3d a6aa 1dbd bb2a 043d
00000210: 61d3 893d 6888 8cbd beb6 52bd 4ed3 0d3d
00000220: 7f12 9fbd f5d4 35bd 4418 8b3d cbe5 23bd
00000230: aa60 18bd 1c64 cd3c b148 5cbd 21db ab3b
00000240: 43cc 65bd f6d8 04bd e1b4 83bd 322f 263d
00000250: 0117 f2bc 4b6b 0abb fa87 6abd 8d50 2fbd
00000260: ef04 61bd d1f9 6ebd 304a e13c 0f26 b3bd
00000270: c431 4b3d 18e8 fa3c bbfb 683d 33a5 38bd
00000280: ac48 9f3b d589 92bd 82b9 bfbc d7fb 86bd
00000290: 66b0 07bc 31f1 153d 891b f83c 47d4 9a3c
000002a0: 6796 9e3a 3d6e 103d 3bf6 6abd 7bd7 8abd
000002b0: e059 a7bd 00ba e93c 3458 a63d 759b b3bd
000002c0: dbff 99bd 4803 a4bb 812d 3fbb d80d 8b3d
000002d0: 11e5 693d 624b 8abd 080a 54bd b3ae 98bc
000002e0: 7953 8cbd b490 33bc e2ea 903d 6a6a 493c
000002f0: c713 e1bc a37a b23d dd6c a2bd 7b97 1fbd
00000300: 87b9 943d 0f65 da3c 5892 453d d73f afbd
00000310: b745 fd3c fc45 96bd e114 54bd fcbd 4bbc
00000320: 1989 cb3c 8c12 803d 3edb 8dbd c044 9d3d
00000330: 10de 993d b3c2 493d 6f26 df3a bbad 0fbd
00000340: 2d14 1e3d 5a1d d93b a0d5 afbd 0a1e e33c
00000350: 149e d5bc f3bd 87bd 88f5 ad3d f8f4 f0bc
00000360: fe02 e8bc d2ec b0bd c2de 073d bf92 7d3d
00000370: 9bae e8bc 46e8 3f3d 70ae a5bc 507d df3b
00000380: 68f1 883d 9111 993d 6ec7 2dbd 7db9 0d3d
00000390: 998a 47bd b475 01bc 948c 04bd 2882 f33c
000003a0: bb2d cb3c 9107 9f3d db24 81bc 483b 0e3b
000003b0: 3282 813d b805 403c a135 2c3d 248f b3bd
000003c0: a255 21bd 1bc3 27bd 507d 463d af6e 6fbd
000003d0: 3e18 88bd 05ee 053d 3894 25bc 3b8a 90bd
000003e0: b390 7a3d f5c7 6f3d 00a1 163d 71dc 203d
000003f0: e1b5 073d 20ed 6cbd 8fcf 973d 3300 673c
-0.02199807 -0.05762354 -0.002477758 -0.063248724 0.04574243 0.015018979 -0.047668967 -0.021573195
0.052130222 0.067826875 -0.05031942 -0.019143708 0.01775401 0.052663267 -0.023854617 -0.012172738
0.033063907 -0.054797463 -0.072172716 -0.07467647 0.009773856 0.06788321 0.07686353 -0.08619795
0.066043265 0.03515539 0.030454412 0.04848525 0.050883867 -0.012302712 -0.03660963 -0.027839005
-0.061542332 0.018143432 -0.052340798 0.044322893 -0.082656816 -0.058431752 -0.08506961 0.026277605
0.015132015 -0.05463993 -0.01384257 0.035531268 0.04163592 -0.07087467 -0.085174456 -0.05764432
-0.072402276 -0.06253222 0.041288123 0.03734662 0.07520032 0.064784124 0.01971652 0.04032442
0.030291619 0.00304737 0.07189887 -0.030740665 0.033914737 0.019171432 -0.028789714 0.0741913
0.015169551 0.025313728 0.028671375 -0.066478275 0.014501726 0.0147186695 -0.037195027 -0.020541899
-0.045259703 0.00012542478 0.074642345 0.053753033 -0.034682095 0.03615623 0.017634455 -0.055615645
0.062225237 -0.06349203 0.005707133 -0.06493044 0.07824476 0.060036227 0.007752932 0.0029447894
0.033837076 0.010444458 -0.022916138 0.01249107 -0.05687316 -0.007284887 0.08358443 -0.05205963
-0.057064936 -0.048604097 0.0476472 0.02609907 -0.03147788 0.08286629 -0.049621996 -0.057135995
-0.057701956 -0.05295827 0.029729579 -0.022712363 -0.07887747 0.006751111 -0.080844924 0.01082279
-0.047483258 -0.046207517 -0.05650568 -0.049823225 0.029696038 -0.027519079 0.013948242 -0.010164861
0.064167 0.05369871 0.048999123 0.058612417 0.008770651 -0.059450116 0.0501768 -0.012561434
-0.084545866 0.06944548 -0.03849282 0.032267313 0.067297705 -0.06861955 -0.051443808 0.034625344
-0.077672 -0.044392545 0.06791738 -0.04001407 -0.03720156 0.02507215 -0.05378026 0.005244628
-0.056103002 -0.032433473 -0.06430984 0.040572353 -0.029551985 -0.002112108 -0.057258584 -0.04280143
-0.054936346 -0.058343712 0.027501196 -0.087474935 0.049608007 0.030628249 0.056880694 -0.04507942
0.004860958 -0.071551956 -0.023403887 -0.065910034 -0.008281803 0.03660697 0.030286567 0.01890005
0.0012099267 0.03526138 -0.05736373 -0.06779381 -0.08171439 0.028531075 0.08122292 -0.087698855
-0.07519504 -0.005005274 -0.002917141 0.0678975 0.05710322 -0.067526594 -0.05176738 -0.01863799
-0.06851859 -0.010959793 0.0707605 0.0122934375 -0.02747525 0.08714797 -0.0793092 -0.038962822
0.07261949 0.026659517 0.048235267 -0.08557098 0.030917032 -0.07337567 -0.051777724 -0.0124354325
0.024845647 0.062535375 -0.06926583 0.07679129 0.07513058 0.049257945 0.0017025004 -0.03507779
0.03859346 0.0066258134 -0.085856676 0.027724285 -0.026076354 -0.06628027 0.08494097 -0.029413685
-0.02832174 -0.0863892 0.033171423 0.061907526 -0.02840357 0.046852373 -0.02022478 0.0068203583
0.066866696 0.07474054 -0.04242652 0.034600724 -0.04871616 -0.007901598 -0.03236063 0.02972515
0.02480208 0.07765115 -0.015764644 0.0021702815 0.06323661 0.011720113 0.042043332 -0.08767536
-0.039388306 -0.04095755 0.04845935 -0.058455165 -0.06645249 0.032697696 -0.010106139 -0.07057615
0.061173152 0.058540303 0.036774635 0.03927273 0.033132438 -0.057843328 0.074126355 0.014099169

mlp.0.bias f4 [32]
00000000: 8440 a83d db72 873d 81f2 533d 6a65 6cbc
00000010: e8e0 dd3c 6f61 1abc bc25 7abd e285 ac3d
00000020: 5251 9fbd 19f1 da3b 59e3 edbc 8b55 a9bd
00000030: 427e 1a3b 570f a1bd b15a bd3c 1b7e 8ebc
00000040: 84f7 7d3b 5c86 07bd 7732 2f3d d34b 56bd
00000050: 318f a63d 2c1d 8b3c 4a7c 45bd b02d bebc
00000060: 44b5 993d 1ce1 eebc 4055 7fbd e986 7dbc
00000070: 3176 b33d c7eb 01bd 4e2b 91bd 7f57 96bd
0.082154304 0.06613704 0.05174494 -0.014428476 0.027084783 -0.009422644 -0.061071143 0.084239736
-0.077791825 0.006681573 -0.029039072 -0.08268269 0.002357379 -0.07864254 0.023114534 -0.017394116
0.0038752267 -0.03308712 0.042772736 -0.052318405 0.0813278 0.016981684 -0.048214234 -0.023215145
0.07505277 -0.029160075 -0.06233716 -0.01547406 0.087627776 -0.031718995 -0.07088338 -0.07340907

mlp.1.weight f4 [32]
00000000: 3bd5 7f3f 7713 803f 8612 803f fdd6 7f3f
00000010: a6e7 7f3f c611 803f 970f 803f 1d13 803f
00000020: 2911 803f e9d5 7f3f 34d4 7f3f 8613 803f
00000030: fa11 803f 9711 803f cfd6 7f3f 19d5 7f3f
00000040: 6c12 803f 8b10 803f 5212 803f 7a12 803f
00000050: 74d6 7f3f 08d5 7f3f 3fd5 7f3f 4914 803f
00000060: 8012 803f 31d4 7f3f 4e0e 803f b211 803f
00000070: a3d6 7f3f 8dd6 7f3f f7d5 7f3f 1013 803f
0.9993474 1.000594 1.0005653 0.9993742 0.9996284 1.0005424 1.0004758 1.0005833
1.0005237 0.99935776 0.9993317 1.0005958 1.0005486 1.0005368 0.99937147 0.99934536
1.0005622 1.0005049 1.0005591 1.0005639 0.99936604 0.99934435 0.9993476 1.000619
1.0005646 0.99933153 1.0004365 1.00054 0.99936885 0.99936754 0.9993586 1.0005817

mlp.1.bias f4 [32]
00000000: 92d4 22ba d12e 243a dd67 213a a8f1 1eba
00000010: 77c0 c4b9 003d 253a 2539 203a c34e 273a
00000020: 34c9 203a 895c 22ba 8eb7 25ba 585a 283a
00000030: af25 233a 912c 213a e511 24ba f599 22ba
00000040: e264 1c3a a208 183a a62a 1f3a 42fb 203a
00000050: 4a1f 1bba e313 26ba 21d8 24ba 44f4 283a
00000060: 8afc 243a f4bb 26ba 2205 223a 15ee 203a
00000070: 8cc7 1fba 1e4e 24ba fa27 1fba a157 213a
-0.0006211485 0.00062630797 0.00061571394 -0.0006063231 -0.0003752743 0.000630334 0.0006112031 0.0006382281
0.0006133497 -0.00061935984 -0.0006321602 0.00064221537 0.0006223572 0.00061483035 -0.000625877 -0.0006202751
0.00059659604 0.0005799626 0.0006071724 0.0006140956 -0.0005917443 -0.0006335361 -0.0006288309 0.000644509
0.0006293735 -0.00063604047 0.00061805744 0.00061389926 -0.00060951035 -0.0006267744 -0.00060713256 0.00061547203

mlp.1.running_mean f4 [32]
00000000: 167e c2be 415f b63e 0b6e 47bf c4c5 46bf
00000010: 8fdc e3bd a55d af3d 5070 af3f 16dc 5e3e
00000020: 5d7e c7be d0c0 b33e 838c a03e 8915 33bf
00000030: 277e a1bd 7430 9a3f ca50 e83f 4d5e e23f
00000040: b602 7c3f ddd3 f33f 9a50 c9be 05ba 2f3d
00000050: b4c2 b4bf 52ab 39bf 9fa8 e63e c8ea 91be
00000060: 1d63 273f 20c8 18bf 1974 44bf cd55 6cbf
00000070: 0338 56bf e2e5 bdbd 6475 8cbe dd97 fabf
-0.3798682 0.35619548 -0.7790229 -0.77645516 -0.111260526 0.08562783 1.370615 0.21763644
-0.38963595 0.35108042 0.31357202 -0.69954735 -0.0788539 1.2046037 1.8149655 1.7685028
0.98441637 1.904903 -0.39319307 0.04290201 -1.4121919 -0.7252704 0.45050523 -0.28499436
0.6538561 -0.59680367 -0.7673965 -0.9231842 -0.8367922 -0.09272362 -0.27433312 -1.9577595

mlp.1.running_var f4 [32]
00000000: 06fd aa3d e6b6 e53d f7a0 e43d 3c8d da3d
00000010: 8fef fb3d 90c7 923d 26f6 ad3d 4f0a af3d
00000020: 726c d63d 1ac2 c73d 41de 0f3e 6ac4 f13d
00000030: 6a60 df3d 2c92 cf3d 50a3 c13d d807 d73d
00000040: 2296 b03d ba2f fa3d 46dd e73d 4a5b e23d
00000050: 5cae 043e ec46 d13d 0229 e33d 8226 c93d
00000060: befd b23d 4b75 d53d 84e1 f13d b5e8 ee3d
00000070: d6be 9b3d 1cd6 c03d fe75 8f3d 8368 e23d
0.08349042 0.11216526 0.11163514 0.106714696 0.123015516 0.0716697 0.08494215 0.08546888
0.10469903 0.09753819 0.14049627 0.11805041 0.109070614 0.10135302 0.094549775 0.10499543
0.086223856 0.12216134 0.113215014 0.11052568 0.12957138 0.102186054 0.11091806 0.09821798
0.08739804 0.104227625 0.11810592 0.11665479 0.076047584 0.09415838 0.07004927 0.1105509

mlp.4.weight f4 [1, 32]
00000000: 1ffa 2f3e 71f9 d3bd 1301 6cbc 0b9c ca3c
00000010: fd46 efb8 0d39 6fbc 7ed1 04be 2e42 53bd
00000020: b40f 66bd 9048 093e 4ade 163e a4aa 46bd
00000030: a4cc 48bd 0f19 1abe 1866 1c3e 8f9a 313e
00000040: 1ce5 2dbe d2e8 95bd 77f5 b4bc bae7 c1bd
00000050: da6c e63b c5de 7d3d 847b 1f3e f489 a5bd
00000060: 0d90 13be 7041 1b3e 3911 23be feae 31be
00000070: 2ad6 0d3e 4f82 883d 7b58 e93d 0a24 c1bd
0.17185257 -0.103503115 -0.014404553 0.02473261 -0.00011409631 -0.014601004 -0.1297054 -0.051576786
-0.05616732 0.13406587 0.14733234 -0.04850258 -0.049023286 -0.15048622 0.1527332 0.17344116
-0.1698193 -0.073197976 -0.022089703 -0.094680265 0.007032019 0.061980028 0.15574461 -0.08082953
-0.1441042 0.15161681 -0.15924539 -0.1735191 0.13851228 0.066654794 0.113938294 -0.09430702

exp_avg f4 [64, 1024, 1, 1]
00000000: bcbb 29b8 f8ee 4fba 21b5 26ba 6feb c939
00000010: 5ca6 85b8 8593 fb38 1f66 6439 ec62 e53a
00000020: f8d2 f0b8 ca22 3fba edeb 27b9 7ee9 7eba
00000030: cb88 50ba 5da6 2bb9 6fe4 78b9 2cf5 373a
00000040: 6111 72ba 58c5 65b9 20a7 40ba 6ae5 8bba
00000050: 64fa 8739 3f2c b3b9 a3c1 0cba b920 7138
00000060: 48a8 dab9 12e0 31ba 8e5e d339 4e27 adba
00000070: 58bf 5338 6fcc 6939 7bcb 9cba c0d3 353a
00000080: 9f95 24ba b456 c7b9 a68b 9bb9 767c 02ba
00000090: 3b22 0239 e688 b0b9 c50f 2738 5f46 13b8
000000a0: 9f22 62ba 2a8d 9cb9 ff8f f339 71e5 61b7
000000b0: feb3 62b9 f8d8 2cba f12d 29b9 e1c6 ab39
000000c0: c741 be38 20d4 9d39 80b6 a9b9 196d 5fb7
000000d0: bc62 c438 d64f b9b9 ec40 7d39 8655 afba
000000e0: 6146 663a cdba 35b9 f6c3 bbb9 15c6 adba
000000f0: 4364 1eba 48b3 53ba 3e52 f9b9 f808 7336
00000100: 4a69 b5b9 dee1 28ba 2512 34b8 86a9 15ba
00000110: 6374 4139 0a13 9cb6 cebd 8aba f158 d137
00000120: 8162 80ba dc0a 5539 ff63 9c37 5e7e aaba
00000130: 8804 0238 1ae4 b9b9 4454 2fba a81d daba
00000140: 8a6c 3fb9 1f3c b9b9 f074 413a 7d1a 2239
00000150: 4484 5eb9 decf 8639 88ed 6aba 6e5c 0eba
00000160: d58d e9b9 737b bb3a 9063 5bb9 21d1 db39
00000170: 4c8f 16ba c989 c2b9 4560 64b8 aa16 f33a
00000180: bdf8 0e39 3599 c7ba 2b70 30b9 8abe b235
00000190: 7a55 10ba 3548 80b9 3ee0 bdb8 80ec abb9
000001a0: 1f09 9db9 59b5 b1b8 fc3a 35b9 3418 8838
000001b0: 9228 0dba 0228 bbba c37d 9c39 d8b0 d7b3
000001c0: bd4c 063a 01a7 8db8 fd7b e2b9 9fef bcba
000001d0: 51f6 0f3a 9b60 bbba 9f0b fab9 0d20 9eba
000001e0: cc49 1f39 34b1 2b3a e000 ff37 0391 dc3a
000001f0: 86c9 c1ba c95e b5b8 d2d7 f8ba 803f 08ba
00000200: d51d a739 0ed9 213b 3c68 a73a 902c b5ba
00000210: 171d 93b7 6b35 ac39 137c 6dba 82e6 41ba
00000220: c6d9 05ba 537a 1eba 918e cab9 5c88 29ba
00000230: 494d 1a3a 350b 01ba 07a3 49ba 8b7a 48b8
00000240: 8d2d 0c39 b9df d4b9 88ae 16ba 62f0 9dba
00000250: 9d32 5bba 0742 26ba 9ae6 ddb8 4f4a c338
00000260: 6753 883a 85e9 0b3a 8a54 e739 8774 5bb7
00000270: 45d3 a1b9 74cd f1b6 7629 753a 76e1 1ab7
00000280: bd7c 3b3a 8d88 e139 7be2 7dba 74ad ca39
00000290: cc4a 4e3a 970b 99ba bc2f 8fb9 8b3b b6b9
000002a0: 4dcd 9e3a d337 da39 53ed 32b9 8f49 83b8
000002b0: 20bd 463a 7629 61ba 2475 1fb8 ab4d b939
000002c0: 2dc7 8139 884d 1dba 48ca 8438 8cdf b439
000002d0: 8212 013b 126b 7239 8e41 c2b9 0693 0938
000002e0: 6d08 043a 4e75 0d3a 7871 b6ba 56d0 023a
000002f0: 1d43 13b8 1273 9db9 3edb 22b9 8762 85ba
00000300: ff24 2eba b6bb 2bb9 a5f2 dbb9 29d8 2aba
00000310: 34dc 343a 56b0 87b7 7e9e 4738 0096 3a39
00000320: ce9f ecb9 fd75 573a 551a e138 ec04 da39
00000330: 5405 7fb8 236b 8c37 7480 15ba c9fa c6b9
00000340: f0d4 dab6 5608 fab9 37d7 133a 3594 9db9
00000350: 9155 9339 3089 28b9 947e 293a 320d bbb9
00000360: e721 38ba cbaf 8b39 cd45 c838 4860 013b
00000370: 43c2 d338 fb45 c8b9 b0a4 0e3a ccbe 06ba
00000380: 978d 5a3a 6188 b0b9 abe3 3db9 94ab 873a
00000390: f936 b7b9 9d96 83ba 2d79 2fba 70c6 933a
000003a0: a625 b13a 01ba 06ba 2a07 4ab8 674d 5d39
000003b0: 5989 923a b040 bc39 4e8c 7839 3057 c9ba
000003c0: 054a ad3a 6745 d3ba 30c4 b7b9 1907 1dba
000003d0: 2a15 35ba d36f a7b8 9ade 4fba 59ba 5939
000003e0: 706d fd39 9432 b9b9 a2a8 0239 eb0a a83a
000003f0: cd90 ceb8 7940 92b7 2633 86ba f769 82ba
-4.046758e-05 -0.00079320325 -0.0006359388 0.0003851312 -6.372921e-05 0.0001199609 0.00021781817 0.0017500794
-0.00011483388 -0.0007291256 -0.0001601425 -0.0009724124 -0.0007954954 -0.00016369806 -0.00023736221 0.00070174295
-0.0009234157 -0.00021912658 -0.00073491223 -0.0010673229 0.00025935762 -0.00034174506 -0.00053694303 5.7489353e-05
-0.0004170558 -0.0006785403 0.00040315505 -0.0013210566 5.0484523e-05 0.00022296769 -0.0011962497 0.0006936155
-0.0006278399 -0.00038020837 -0.0002966795 -0.00049776526 0.00012410518 -0.00033671333 3.983059e-05 -3.511307e-05
-0.0008626375 -0.00029859814 0.00046455857 -1.3464466e-05 -0.00021620092 -0.000659361 -0.0001613421 0.00032763838
9.072158e-05 0.0003010342 -0.00032370165 -1.3317237e-05 9.364399e-05 -0.00035345432 0.00024152145 -0.0013376928
0.0008784291 -0.00017331094 -0.00035813422 -0.0013257886 -0.0006042162 -0.0008075726 -0.00047554256 3.6215042e-06
-0.00034601457 -0.0006442348 -4.2932243e-05 -0.000570916 0.00018449272 -4.6513787e-06 -0.0010585131 2.4956158e-05
-0.0009794981 0.00020317308 1.8643213e-05 -0.0013007631 3.0998635e-05 -0.000354559 -0.0006688277 -0.0016640918
-0.00018255613 -0.00035330743 0.0007379791 0.00015459392 -0.00021220843 0.00025713345 -0.00089617865 -0.0005430643
-0.00044546896 0.0014303759 -0.00020922557 0.00041926748 -0.0005743399 -0.0003710522 -5.4449094e-05 0.0018546183
0.00013634838 -0.0015228154 -0.00016826454 1.3317488e-06 -0.0005505901 -0.0002446786 -9.053991e-05 -0.00032791868
-0.0002995217 -8.473796e-05 -0.00017283479 6.4894935e-05 -0.00053847686 -0.0014278891 0.00029848338 -1.00438854e-07
0.0005123129 -6.754511e-05 -0.00043198458 -0.0014414674 0.0005491721 -0.0014295758 -0.00047692374 -0.0012063995
0.00015190913 0.00065495376 3.0398776e-05 0.0016827885 -0.001478479 -8.648408e-05 -0.0018985218 -0.00051974505
0.0003187495 0.0024696025 0.0012772153 -0.0013822485 -1.7537312e-05 0.00032846196 -0.0009059321 -0.0007396714
-0.0005105998 -0.00060454494 -0.00038634663 -0.00064671575 0.000588615 -0.00049226295 -0.00076918345 -4.7797843e-05
0.0001336841 -0.00040602477 -0.0005748053 -0.0012049789 -0.0008361729 -0.00063422363 -0.00010581054 9.312166e-05
0.0010400832 0.00053372263 0.0004412274 -1.3080548e-05 -0.0003086572 -7.2062776e-06 0.00093521865 -9.2316095e-06
0.00071520713 0.00043017082 -0.00096849323 0.00038657675 0.0007869422 -0.0011676428 -0.0002731065 -0.00034758108
0.0012115628 0.00041621792 -0.00017063813 -6.260268e-05 0.00075812824 -0.0008589247 -3.801765e-05 0.00035343817
0.00024753195 -0.0006000628 6.331928e-05 0.0003449883 0.001969487 0.00023118805 -0.00037051406 3.280027e-05
0.0005036656 0.0005396203 -0.0013919314 0.0004990151 -3.5110035e-05 -0.00030031108 -0.00015531198 -0.0010176458
-0.0006643086 -0.00016377759 -0.0004195172 -0.0006517196 0.0006899268 -1.6175367e-05 4.7592905e-05 0.00017794222
-0.00045132492 0.0008219181 0.00010733741 0.00041583867 -6.08017e-05 1.673919e-05 -0.000570304 -0.00037952352
-6.5216955e-06 -0.00047689927 0.00056396745 -0.00030055796 0.00028101777 -0.00016072835 0.00064657 -0.0003567725
-0.0007024095 0.00026643122 9.5497446e-05 0.0019741226 0.00010097448 -0.00038199112 0.00054414105 -0.0005140125
0.00083371386 -0.00033670946 -0.00018109258 0.0010350817 -0.00034945438 -0.0010039393 -0.0006693777 0.0011274349
0.0013515248 -0.0005139411 -4.8167225e-05 0.00021105037 0.0011179849 0.0003590635 0.0002370339 -0.0015361067
0.0013220912 -0.0016118706 -0.0003505065 -0.00059901323 -0.0006907756 -7.9840094e-05 -0.00079295936 0.00020764153
0.00048337458 -0.00035323633 0.00012460587 0.0012820637 -9.849817e-05 -1.7434579e-05 -0.0010238632 -0.0009949793

exp_avg_sq f4 [64, 1024, 1, 1]
00000000: 80fc 5531 18bc 8b34 cf6d 0935 585d c234
00000010: 9ca1 8433 6c69 a334 2769 ec33 d5c0 3335
00000020: 4079 9c32 38ba 3e35 df2b 6032 93b2 f634
00000030: 1c70 d434 9ac5 6334 34fc 6633 e225 1235
00000040: e581 a534 4254 c133 f4ad f234 4c66 2f35
00000050: b397 b833 97f4 0f34 86a2 5934 ade7 9034
00000060: a0c3 9e34 f04e 7b34 2b7e 9134 7757 0735
00000070: f06f 2832 312c b635 78b7 e534 0d1e 8034
00000080: da94 1835 48f7 6034 7977 9734 1921 1135
00000090: 811d e033 69b3 9633 6f6a c234 610e cc33
000000a0: fcd5 6234 3da5 e933 282e 2734 e700 aa34
000000b0: 1e87 b233 6820 2634 ac08 1334 f5d3 5e34
000000c0: 0e45 3732 b91a 3834 a668 e133 eefb c833
000000d0: ba23 4d34 124b 2834 416f 8e34 5a54 2635
000000e0: d6e5 7434 e1bc 2d34 c156 4734 3251 6135
000000f0: 167b 5534 8291 9834 3d57 f933 77d2 9c33
00000100: e77a c334 949d c134 bb5d d333 71ee 6a34
00000110: a270 1c33 6980 c033 50c0 1035 1966 a034
00000120: 8d7c b734 cda5 0334 f850 8733 cfd9 8134
00000130: e48a b134 f11f 8734 ad4d 5634 1179 2035
00000140: b692 e833 47d8 1f34 1acc 4034 1d82 fc34
00000150: 0405 de34 aa7b 1f34 e3ba 8834 2aa7 1f35
00000160: bddf 6d34 0560 3135 a80a f633 a856 9a35
00000170: 887f 3734 4eb8 fc33 788e ed33 4073 1535
00000180: c6fb f634 7d0c 4835 1f0e 6232 1bb1 0434
00000190: 33da 4b34 7bed ad33 726b 8231 e65c 0e33
000001a0: 112c 1e34 d6a5 a632 fae3 5334 12d4 ee34
000001b0: cb0e b434 c55c b734 28f1 1e35 6b74 9f34
000001c0: 2900 1d35 6a63 f331 c0dc 0935 3edb 0b35
000001d0: b006 8234 c0d9 9d34 58a6 cd34 05ed 0b35
000001e0: 80ae 5734 9194 5434 ec89 8634 da6e 1135
000001f0: 4b3f 1635 6823 b033 f71d 2435 39eb f833
00000200: 80d4 6034 bad7 9735 98e0 bc35 35c2 da34
00000210: 0707 ca34 cb70 dd34 548a a933 696a 1e34
00000220: 6a27 9b34 e30c d034 1c31 5934 c586 9633
00000230: 0609 8534 ae8b c634 8117 9134 c6f0 3634
00000240: 385c 7433 6a0e 6d34 9503 0834 77f7 2835
00000250: f403 0434 1f67 9934 5771 d134 cc13 7934
00000260: 85e2 3e35 754b 4034 18ef 2434 a3da 1933
00000270: 9454 6534 011c 5133 a079 be34 4d29 f431
00000280: d626 8b34 41eb 3634 6cb1 7534 0277 6035
00000290: 2a85 ea35 3faa ef34 ce59 a032 600f 9e33
000002a0: dca4 6235 82b6 8734 b6ab 0835 5ee7 b434
000002b0: 7b0f 2234 45a4 1f34 913a b830 afc4 bf34
000002c0: 5706 fa34 05b1 f134 f1d8 9f32 696b 9934
000002d0: 53eb 6435 3a65 6f34 6525 2734 787e 2934
000002e0: 0035 f533 14dc c234 e396 1a35 f368 6234
000002f0: 87fd 2c35 ecd1 1234 7d59 8834 5b03 b234
00000300: 730c d733 8bee 0035 006f b234 6efa 2734
00000310: 2185 d434 dea2 b634 f7a0 a234 4055 dc34
00000320: ad06 6434 03f2 a334 4430 1d31 cf3f 4e33
00000330: 5e81 da34 299e 7f32 b68c bc34 86b6 0b34
00000340: b202 8634 ce73 2635 b794 1934 56c6 4e34
00000350: 2c3a bc34 8ee1 2b34 ef17 9634 f17b 7832
00000360: 73a5 8e34 05b6 7a34 ce64 7f31 0d22 ed34
00000370: 2887 a534 4d85 2834 d823 9d33 edb9 8334
00000380: 139c 8834 de5c 0935 9b18 0834 cd99 7534
00000390: 6267 4134 3d0a a734 ccac 0734 6a3d 9a34
000003a0: 0612 ea34 6d98 6234 0b6c 5133 f139 7134
000003b0: e6a7 a334 24e4 c232 3db7 6a34 16d0 7935
000003c0: aba1 1c35 a39e fb34 d7af 0334 57d4 b233
000003d0: 1381 5734 a557 2e34 cbce 9b34 5303 f533
000003e0: 9029 c234 7ff2 e433 6720 2233 790f 3735
000003f0: 5eac 0035 ef1d 3332 1e74 b334 2b7a 3134
3.113911e-09 2.6027624e-07 5.119627e-07 3.6203232e-07 6.1761256e-08 3.043782e-07 1.10087335e-07 6.6963304e-07
1.8215928e-08 7.10515e-07 1.3048491e-08 4.5951e-07 3.9569647e-07 2.121291e-07 5.3780425e-08 5.4444365e-07
3.0828156e-07 9.002589e-08 4.520258e-07 6.534144e-07 8.5957616e-08 1.3406894e-07 2.0268826e-07 2.6990656e-07
2.957213e-07 2.3404914e-07 2.7100154e-07 5.0418697e-07 9.804339e-09 1.3572918e-06 4.2788065e-07 2.3863723e-07
5.684102e-07 2.0951586e-07 2.821287e-07 5.406487e-07 1.04361796e-07 7.017554e-08 3.6212757e-07 9.502106e-08
2.1125737e-07 1.0879965e-07 1.5569879e-07 3.1665624e-07 8.3133486e-08 1.5471744e-07 1.3693597e-07 2.075247e-07
1.0667703e-08 1.7146057e-07 1.04964144e-07 9.3590515e-08 1.910511e-07 1.567353e-07 2.653051e-07 6.1962567e-07
2.2807885e-07 1.6180594e-07 1.856488e-07 8.3937186e-07 1.9881949e-07 2.8418077e-07 1.16108346e-07 7.3025994e-08
3.6411004e-07 3.6063705e-07 9.8425026e-08 2.1879693e-07 3.642402e-08 8.9640544e-08 5.392403e-07 2.9876608e-07
3.417703e-07 1.2260644e-07 6.3011555e-08 2.41866e-07 3.3069875e-07 2.516895e-07 1.9958561e-07 5.978082e-07
1.08300284e-07 1.488671e-07 1.7955645e-07 4.7033328e-07 4.1354372e-07 1.4853018e-07 2.5467952e-07 5.947537e-07
2.215374e-07 6.6077365e-07 1.1457206e-07 1.1499114e-06 1.7089599e-07 1.1768189e-07 1.10620874e-07 5.5674536e-07
4.600426e-07 7.452398e-07 1.3158142e-08 1.2357889e-07 1.8985229e-07 8.099138e-08 3.795713e-09 3.3146442e-08
1.4730928e-07 1.9400357e-08 1.9733844e-07 4.4485256e-07 3.3538376e-07 3.4153905e-07 5.9210515e-07 2.9700763e-07
5.848729e-07 7.083533e-09 5.135771e-07 5.2100575e-07 2.4219253e-07 2.9401963e-07 3.8305257e-07 5.2126444e-07
2.0086918e-07 1.9798087e-07 2.5059796e-07 5.417802e-07 5.597146e-07 8.202079e-08 6.1138365e-07 1.1591187e-07
2.0938933e-07 1.1313161e-06 1.4072457e-06 4.0746968e-07 3.7630545e-07 4.1246525e-07 7.8948375e-08 1.4753608e-07
2.8899677e-07 3.8752395e-07 2.0227566e-07 7.009434e-08 2.4779746e-07 3.6982004e-07 2.7025456e-07 1.7037664e-07
5.689455e-08 2.2077589e-07 1.266729e-07 6.2944986e-07 1.2294896e-07 2.85735e-07 3.901175e-07 2.3197134e-07
7.1110145e-07 1.7908845e-07 1.5360672e-07 3.5821937e-08 2.1358056e-07 4.8687074e-08 3.5478752e-07 7.10603e-09
2.5919024e-07 1.7035656e-07 2.2881949e-07 8.361968e-07 1.7473114e-06 4.464109e-07 1.866729e-08 7.360245e-08
8.443146e-07 2.5278501e-07 5.091382e-07 3.3695954e-07 1.5093057e-07 1.486779e-07 1.3404408e-09 3.5719628e-07
4.6570742e-07 4.5018547e-07 1.860869e-08 2.8576622e-07 8.527906e-07 2.2295436e-07 1.5566691e-07 1.578536e-07
1.1418342e-07 3.6295444e-07 5.758904e-07 2.108607e-07 6.4443924e-07 1.3673679e-07 2.5397085e-07 3.3157525e-07
1.0013982e-07 4.803084e-07 3.3235847e-07 1.5644193e-07 3.958494e-07 3.4018643e-07 3.029197e-07 4.104022e-07
2.1236583e-07 3.0537203e-07 2.2873943e-09 4.8021146e-08 4.069979e-07 1.4878915e-08 3.512011e-07 1.3011785e-07
2.4961406e-07 6.2008337e-07 1.4303338e-07 1.9257399e-07 3.5060054e-07 1.6007672e-07 2.795709e-07 1.4463681e-08
2.656994e-07 2.3349283e-07 3.7164685e-09 4.4169465e-07 3.0831984e-07 1.5694714e-07 7.317402e-08 2.453593e-07
2.5445533e-07 5.1171617e-07 1.2674938e-07 2.2873355e-07 1.8012136e-07 3.1113623e-07 1.2635718e-07 2.872942e-07
4.359901e-07 2.1103342e-07 4.875987e-08 2.2465953e-07 3.0483278e-07 2.2688319e-08 2.185961e-07 9.3062533e-07
5.8349787e-07 4.6867817e-07 1.2264296e-07 8.327395e-08 2.0070392e-07 1.6236898e-07 2.9021462e-07 1.1409306e-07
3.6165557e-07 1.0661187e-07 3.7748034e-08 6.819533e-07 4.7934543e-07 1.0425977e-08 3.3425835e-07 1.6528854e-07

exp_avg f4 [64]
00000000: 7424 852f 575f cbae 018c cc2c af13 84ad
00000010: 8598 ca2e 0c0f 03ad 2238 612e a2c8 962f
00000020: 5864 53af c9c6 032e 8646 8faf e65b 3aaf
00000030: e657 7aaf d2a5 1d2e ebd4 5eae 8760 0aaf
00000040: 6a5b d9ad 9c15 5daf 2e8b cd2f 2150 c0af
00000050: 5340 872d 0643 c72f 4afc e6ae 5279 942e
00000060: ab2c 812e a11e ce2f bf2a fe2f e95b 7c2f
00000070: e3d5 1faf e5f5 3d2f d4bc 89ae ad68 fc2d
00000080: aae9 1b2e 2951 a3af 2957 22af 7138 a02f
00000090: e08c 10af f179 85ae 37b6 b2af cb96 69af
000000a0: 5a52 f02e 590d 2fad 42f7 d52f c856 f22e
000000b0: 96a9 9c2e 80cd 11af 174f 742e 2db1 97ae
000000c0: a34d 2430 47fb d7ae 2c12 682f 1f15 aa2e
000000d0: eaca b02e 35b1 a8af bd96 a22e a1b5 102f
000000e0: a483 6d2f f2e8 4d2f 57b0 812d 191a 012f
000000f0: e087 c52e 3097 6aae af2c 96af 43a1 f72f
2.421846e-10 -9.248307e-11 5.8135723e-12 -1.5015404e-11 9.2129894e-11 -7.449829e-12 5.1208933e-11 2.74274e-10
-1.9225987e-10 2.9962508e-11 -2.6061658e-10 -1.694925e-10 -2.2768595e-10 3.5844945e-11 -5.0666065e-11 -1.258532e-10
-2.471064e-11 -2.010751e-10 3.7388176e-10 -3.4981532e-10 1.5376289e-11 3.6245512e-10 -1.05040046e-10 6.7518116e-11
5.8741755e-11 3.7492945e-10 4.6232704e-10 2.295192e-10 -1.4536954e-10 1.7276809e-10 -6.263581e-11 2.8695568e-11
3.5450455e-11 -2.9707195e-10 -1.476478e-10 2.9143934e-10 -1.3146773e-10 -6.069801e-11 -3.2507483e-10 -2.1244799e-10
1.0928565e-10 -9.950562e-12 3.8920162e-10 1.1020301e-10 7.124183e-11 -1.3260681e-10 5.5549423e-11 -6.898158e-11
5.977318e-10 -9.821704e-11 2.1106733e-10 7.734457e-11 8.039598e-11 -3.0684935e-10 7.3936836e-11 1.3161251e-10
2.1601793e-10 1.87274e-10 1.4743913e-11 1.1741753e-10 8.982659e-11 -5.333972e-11 -2.731659e-10 4.5043622e-10

exp_avg_sq f4 [64]
00000000: 3dba 6a1f 04c3 601f 52db 921f 73c1 1f20
00000010: ffac 2f1f 0342 5820 7062 a01f 093c 241f
00000020: e979 5e1f 45c8 b51f 82e9 3e1f 618b 8c1f
00000030: 83c3 631f 9ec4 2a1f 1a9a 441f 188b 801f
00000040: d82c 9a1f 86b7 0020 0996 1720 bde3 d31f
00000050: c77f 901f 1202 1520 684b 941f 16c4 5e1f
00000060: 9ad0 bf1e 1925 ab1f 7d4b 5e1f 4998 0e1f
00000070: 7464 0b20 2318 681f 3869 861f e882 001f
00000080: 2245 3f1f c67f e01f add1 581f 0a03 ab1f
00000090: e15b 2b20 8a2a 441f eb34 581f 9503 461f
000000a0: 9cd3 0520 128d 1720 c7ff fb1f 23ee 311f
000000b0: 12f3 8b1f f358 611f 984f 821f 9c3f 4b1f
000000c0: bbbe 1f20 95dc 1e1f 4822 8f1f d79f 801f
000000d0: f8eb 241f c360 de1f 6a77 a11f db78 d51f
000000e0: ec40 431f bee9 af1f bc69 001f adad d91e
000000f0: fce7 661f eeb0 2820 c35d 9320 36af 811f
4.970548e-20 4.7595158e-20 6.219624e-20 1.3531831e-19 3.720079e-20 1.8317753e-19 6.792549e-20 3.477801e-20
4.711117e-20 7.69878e-20 4.0427218e-20 5.952289e-20 4.8230843e-20 3.6161538e-20 4.1632084e-20 5.444022e-20
6.5295725e-20 1.0902745e-19 1.283984e-19 8.973874e-20 6.119776e-20 1.2621476e-19 6.280519e-20 4.7172527e-20
2.0309187e-20 7.248269e-20 4.707277e-20 3.0195637e-20 1.1806995e-19 4.9147876e-20 5.692528e-20 2.7213337e-20
4.050301e-20 9.5079074e-20 4.591322e-20 7.2426345e-20 1.4514664e-19 4.1539802e-20 4.5783552e-20 4.1931094e-20
1.1335554e-19 1.2836874e-19 1.0672578e-19 3.767819e-20 5.9270916e-20 4.771918e-20 5.518882e-20 4.303954e-20
1.3530931e-19 3.3640263e-20 6.061957e-20 5.447454e-20 3.492354e-20 9.4180736e-20 6.8383706e-20 9.040895e-20
4.1346558e-20 7.450208e-20 2.7192516e-20 2.30476e-20 4.8896287e-20 1.4288695e-19 2.4964815e-19 5.492349e-20

exp_avg f4 [64]
00000000: 4432 fd39 f477 7137 6564 1eb9 377c a639
00000010: ab02 0f39 7c0c 18ba edb9 8839 6dcd f8b8
00000020: 4b99 33b9 1d5a cd38 ceec d839 3472 4e39
00000030: 648d 78b8 146e 57b9 6dc5 7ab9 383f 1739
00000040: beb0 ce38 6661 45ba aa17 adb9 997f b9b8
00000050: 2ba1 97b9 7ed4 e839 300c f337 b5c5 a037
00000060: afb8 3bb8 6162 233a 87e0 2b39 3ae8 fd37
00000070: 6892 92b7 45f3 4339 8107 f7b9 1508 46b9
00000080: 0dd1 cbb8 9302 64b9 f6c8 a2b8 4073 5c37
00000090: f8c1 c3b7 035f 2538 7806 d1b9 0b4e 0e3a
000000a0: 9ed6 81b9 a988 fb39 e09c 32b7 52c9 9fb9
000000b0: 9012 8239 4c70 48ba 506e 2fb9 8256 c837
000000c0: c2da 9239 78a3 26b9 dff9 083a 248b 9639
000000d0: a010 0bba d2c5 0fb9 2e0f f0b7 1cd4 69b9
000000e0: 67e4 54b8 0ad0 d439 eda8 88b6 d92e 6738
000000f0: b221 0039 a926 05b8 3230 1ab6 53a0 053a
0.0004829337 1.4392648e-05 -0.00015105454 0.00031754535 0.00013638537 -0.00058002 0.00026078467 -0.00011863825
-0.00017127876 9.791947e-05 0.00041375164 0.00019688235 -5.9259488e-05 -0.00020545005 -0.00023915405 0.00014424033
9.855766e-05 -0.0007529467 -0.00033014762 -8.845254e-05 -0.00028921044 0.00044408807 2.8973533e-05 1.916555e-05
-4.4756274e-05 0.0006232616 0.00016391474 3.026809e-05 -1.7472732e-05 0.00018687274 -0.00047117102 -0.00018885762
-9.718733e-05 -0.00021744733 -7.762194e-05 1.3139856e-05 -2.3336135e-05 3.9427552e-05 -0.00039868406 0.00054284994
-0.000247647 0.0004797627 -1.0646152e-05 -0.0003047684 0.00024809362 -0.0007646128 -0.00016730395 2.3882141e-05
0.00028010277 -0.0001589189 0.0005225222 0.00028713897 -0.00053049065 -0.00013711237 -2.8617298e-05 -0.00022299628
-5.0757455e-05 0.00040590792 -4.0727814e-06 5.5118322e-05 0.00012219584 -3.1745676e-05 -2.2975842e-06 0.00050974375

exp_avg_sq f4 [64]
00000000: ea10 5833 8b21 2333 98ca 1d33 9e4f a233
00000010: 9063 0f33 53c6 db33 5c99 a033 1a4a 6c33
00000020: ad6d 0b33 e86d 7a33 9a98 4833 47e2 a432
00000030: bd2d ca32 ffcb f332 7258 bd32 a284 3e33
00000040: 1fe9 8c33 5b36 8433 503e 3f33 f120 8133
00000050: a783 cf32 df39 ab33 8147 3533 5d42 cb32
00000060: dcc1 d432 414d 5233 be77 5833 58d6 3b33
00000070: e27b 9533 2b92 df32 4fe1 8a33 d1ce e232
00000080: 835d af33 0e8c 1e33 1e25 0d33 c35b 4633
00000090: 7179 7533 985d e432 0f1e 8533 e8e6 1133
000000a0: 3624 7833 936e 2234 6e00 0f33 5055 3a33
000000b0: ceb5 5133 c27e 9833 0158 3a33 fe13 cc32
000000c0: d0f5 6b33 3948 f232 7171 3633 ba8c 4733
000000d0: 57e8 4533 e4d9 8e33 d1cb 2c33 478a b433
000000e0: 2674 3033 eecf d033 489e 1233 f550 5e32
000000f0: 5aa1 1333 3d6d 6033 be94 0534 a08c 5933
5.0306802e-08 3.7981902e-08 3.673867e-08 7.558195e-08 3.3385334e-08 1.0234057e-07 7.4784765e-08 5.5015427e-08
3.246321e-08 5.830762e-08 4.670492e-08 1.9195012e-08 2.3536694e-08 2.838169e-08 2.2042716e-08 4.435845e-08
6.5616625e-08 6.156616e-08 4.4527326e-08 6.0130226e-08 2.415784e-08 7.973335e-08 4.220738e-08 2.3662489e-08
2.4768205e-08 4.8964697e-08 5.0400324e-08 4.3734275e-08 6.960887e-08 2.6027086e-08 6.467109e-08 2.6403912e-08
8.166082e-08 3.691462e-08 3.286288e-08 4.6183924e-08 5.7153958e-08 2.6585255e-08 6.198763e-08 3.397045e-08
5.7774933e-08 1.5127652e-07 3.3295173e-08 4.338409e-08 4.8826955e-08 7.101109e-08 4.338654e-08 2.3757817e-08
5.4938766e-08 2.8205351e-08 4.247835e-08 4.6461288e-08 4.607895e-08 6.652024e-08 4.023224e-08 8.407056e-08
4.108383e-08 9.723577e-08 3.413723e-08 1.2940508e-08 3.4372853e-08 5.2253416e-08 1.2440702e-07 5.0652147e-08

exp_avg f4 [64]
00000000: 0465 c838 e647 94b7 1888 b736 caa4 62b8
00000010: d79e 2137 d462 fcb6 fa75 a238 338d ad38
00000020: a6b9 8e38 b7e5 ff38 d697 9939 6539 a837
00000030: 1cec d5b7 743a 0438 cff2 a238 f643 2739
00000040: fa0f 9cb8 9595 cdb7 2993 c9b8 a54a 98b8
00000050: 22b7 bcb8 8fc4 0238 a44b 8338 148a 8bb8
00000060: 828f bcb7 882c 58b9 9c24 2f37 abae eab7
00000070: 49c3 02b8 09ff d537 ed2e 86b9 df5c c6b8
00000080: 8825 a2b8 3179 6139 d0f3 0436 832b 7239
00000090: 2ec6 8e38 7068 9ab8 e11b a0b9 898f 6139
000000a0: b5b8 09b8 853c 89b7 b7fc 0eb8 3739 edb8
000000b0: 4592 82b7 9abd c0b8 04a2 4bb9 30be 1039
000000c0: f980 85b8 8dbf 0639 3e57 a039 3733 66b8
000000d0: e61b 7db9 3a34 88b6 d8c3 e738 c591 b8b8
000000e0: bb6d a537 22db 9f37 3796 7db7 cb57 8b38
000000f0: b815 dfb8 31d1 1639 63ca 29b8 be82 1239
9.555559e-05 -1.7676455e-05 5.4696684e-06 -5.403607e-05 9.633331e-06 -7.5216903e-06 7.746737e-05 8.275583e-05
6.805667e-05 0.00012202135 0.0002929556 2.0053887e-05 -2.5501526e-05 3.152569e-05 7.7699886e-05 0.00015951679
-7.4416355e-05 -2.4507559e-05 -9.6118376e-05 -7.2618284e-05 -8.99865e-05 3.1177475e-05 6.260656e-05 -6.6537556e-05
-2.2478172e-05 -0.00020615954 1.0439337e-05 -2.797631e-05 -3.117629e-05 2.5510339e-05 -0.00025593434 -9.458674e-05
-7.731753e-05 0.0002150282 1.981145e-06 0.00023095128 6.8080015e-05 -7.362745e-05 -0.0003053835 0.00021511143
-3.2835367e-05 -1.6359854e-05 -3.4090797e-05 -0.00011311698 -1.556532e-05 -9.1905895e-05 -0.00019419944 0.0001380376
-6.365957e-05 0.00012850594 0.0003058258 -5.488397e-05 -0.00024138353 -4.059196e-06 0.00011051417 -8.8009554e-05
1.972063e-05 1.9056319e-05 -1.511495e-05 6.644389e-05 -0.00010637514 0.00014383045 -4.0481227e-05 0.0001397235

exp_avg_sq f4 [64]
00000000: 20b3 2732 c697 8631 365d 7c31 1731 5931
00000010: f83a 6831 096e 2d31 f2e2 c631 f8e3 5e31
00000020: 482b 1031 7700 8b31 936d 2f32 5a43 3d31
00000030: 792c c030 d38f 5031 b2d5 7b31 e12f a831
00000040: 6a53 2731 6203 3a31 57e9 9d31 946c 8031
00000050: ee69 1431 d75d 8231 ce07 9f31 3489 0f32
00000060: 9e64 7831 8694 f231 b334 5c31 4b0c 8c31
00000070: 7145 3131 35b5 2231 8adc 8232 f434 3731
00000080: 3a5b 4c31 cac4 9031 1388 0131 cb5c a831
00000090: a3c2 cc31 680e 5f31 b6d7 8c32 5d68 f831
000000a0: 68b4 8e31 6934 2f31 1f90 cd30 18fb 1f32
000000b0: 262a 2a31 cd15 da31 c923 0232 22b5 e131
000000c0: 9fb8 6931 ffe0 ad31 727c 1d32 21df 4a31
000000d0: eed4 1c32 1479 7b31 bea0 a031 b139 0e32
000000e0: da2a 5531 ed50 6031 38cb 4e31 8b3b 2c31
000000f0: 6b23 9831 3ef9 ea31 0319 1631 aabf c331
9.761408e-09 3.917168e-09 3.672381e-09 3.160556e-09 3.3793963e-09 2.523736e-09 5.788359e-09 3.2434837e-09
2.097936e-09 4.0454853e-09 1.0211255e-08 2.7541405e-09 1.3982479e-09 3.0349738e-09 3.664678e-09 4.8948867e-09
2.4349114e-09 2.7068485e-09 4.595829e-09 3.737634e-09 2.1597049e-09 3.7941663e-09 4.6283963e-09 8.354892e-09
3.6145944e-09 7.060012e-09 3.204417e-09 4.075934e-09 2.5796363e-09 2.3677107e-09 1.5234281e-08 2.6660105e-09
2.9737763e-09 4.213324e-09 1.884932e-09 4.899993e-09 5.959309e-09 3.245896e-09 1.6396239e-08 7.2296147e-09
4.1532537e-09 2.5495643e-09 1.4956675e-09 9.31211e-09 2.4762215e-09 6.3471135e-09 7.5751325e-09 6.5689543e-09
3.4010907e-09 5.0605418e-09 9.166898e-09 2.9521703e-09 9.12881e-09 3.6594132e-09 4.674887e-09 8.278605e-09
3.1019938e-09 3.264229e-09 3.0092462e-09 2.506314e-09 4.427809e-09 6.838632e-09 2.184209e-09 5.6970366e-09
